model.onnx (onnx, 675124 bytes, 13 tensors)

StatefulPartitionedCall/sequential/dense_1/MatMul/ReadVariableOp:0 f4 [256, 1]
000000 94 4a b8 3d db ad aa 3c f0 90 ad 3d 0b 92 3e bd
       0.089986 0.020834854 0.0847491 -0.046525996
000010 04 c3 fc 3d 9f d6 e2 3d 9b 61 24 be 54 94 e7 3d
       0.12341884 0.11076092 -0.16052859 0.11307588
000020 fb 18 24 be 6b f4 fe bd 71 16 dc 3c d6 da d8 3c
       -0.16025154 -0.12448963 0.02686617 0.026471537
000030 f6 c3 92 3c b6 20 2f be 94 94 49 be ee 30 df bd
       0.017915707 -0.17102322 -0.19685584 -0.108980045
000040 e9 c3 11 3e 9e 96 5d 3d e6 76 25 3b b7 8e 03 3e
       0.1423489 0.054098718 0.002524787 0.1284741
000050 5a 05 98 39 a2 5a 69 bd be dc 9d 3d a6 de 09 be
       0.00028995686 -0.0569712 0.07708119 -0.1346384
000060 5b 44 c2 bd 12 8a 1d 3e 39 56 23 bd 0e 86 b0 bd
       -0.09485694 0.15384701 -0.03987715 -0.08619319
000070 4b 5e ee bd 25 16 1a 3d fe ef b2 bd 9e 23 1a be
       -0.11639079 0.037618775 -0.08737181 -0.1505265
000080 af 62 07 be 8a 30 88 bd cf 6f c1 bd fd 38 ba 3d
       -0.13221239 -0.06649883 -0.09445154 0.09092901
000090 4a 2d 06 3d 18 36 b0 3d 58 50 09 3d 1b 26 37 be
       0.032758035 0.086040676 0.033523887 -0.1788563
0000a0 45 eb 26 3e cf a3 27 3e d8 f7 71 bd f1 d7 ef 3c
       0.16300686 0.16371082 -0.059074253 0.029277774
0000b0 35 0c 3d bd b3 27 bd bd ce 94 2a bd 70 46 ed bd
       -0.04615422 -0.09236088 -0.041645817 -0.115857005
0000c0 20 5b 27 be 16 7b a2 3c 0f 2f 4f bd 8f e6 1c bd
       -0.16343355 0.019834083 -0.050581988 -0.038305815
0000d0 9d 92 1f 3e 0a a4 f1 bd 05 ed 45 bd 02 93 d1 3d
       0.15583272 -0.11798866 -0.048321743 0.10233118
0000e0 c7 72 42 bd be 0a 2b 3d ff e8 b8 bb 15 4d 02 3b
       -0.04747274 0.04175829 -0.0056430097 0.001988237
0000f0 7e 92 a4 3b bb 78 e3 3d 72 f0 5e 3c e4 79 19 be
       0.005022346 0.11107012 0.013607131 -0.14987904
000100 37 56 ff 3d 44 9e e2 bd 23 30 e4 bd 10 db 53 3d
       0.12467616 -0.11065343 -0.11141994 0.051722586
000110 a2 e3 15 be 6c b3 fb bd 87 ae e5 3d f7 0a 6b 3d
       -0.14637616 -0.122900814 0.11214929 0.057383504
000120 57 c4 be bc f8 3b 19 bd 4d 77 14 3e 12 75 13 be
       -0.023286982 -0.037410706 0.14498635 -0.14400128
000130 2a 45 9c 3d 0b 8b da 3c 85 81 18 3d 3e e0 b7 3d
       0.076303795 0.026677629 0.037232894 0.08978318
000140 5e 18 8e 3d 97 6a a9 bd e0 80 c4 bd 5d 51 c3 3d
       0.069382414 -0.082722835 -0.095948935 0.09537003
000150 57 b6 93 bd bb 09 94 3d 62 52 00 3e 98 83 8b 3d
       -0.07212513 0.072284184 0.12531427 0.06812209
000160 c8 ca 1d 3d 58 53 cb 3d 1b 42 fa bd a8 70 94 3d
       0.038523465 0.09928006 -0.1221964 0.0724805
000170 43 80 20 3e d6 cc de bd da e6 be 3d f4 32 9d 3d
       0.15673928 -0.10878913 0.09321375 0.07675734
000180 4a 93 9c bd 02 9a f7 bc 31 bd 38 be 2d 28 e1 bd
       -0.07645281 -0.030224804 -0.18040921 -0.10993991
000190 99 77 62 3c 83 d8 3f 3d 25 e7 df 3d 8e 78 f9 3c
       0.01382246 0.04683734 0.10932759 0.030452993
0001a0 ee 40 da 3d 4a 16 7c 3d cd e4 01 3e 33 d1 05 3e
       0.106569156 0.061544694 0.12684937 0.13068084
0001b0 f2 02 78 3d 36 97 f3 3d 57 14 60 bc 48 7f 04 3e
       0.060549684 0.118940756 -0.013676724 0.12939179
0001c0 be 9d ee bd cd 2e 10 be 49 b6 b2 bd da a7 1b 3e
       -0.11651181 -0.14080353 -0.087261744 0.15200749
0001d0 5d 90 e4 bd 95 4f c4 3d bf 01 f0 bd 39 12 02 bd
       -0.111603476 0.095854916 -0.11719083 -0.03175566
0001e0 e1 d8 50 bd f9 2e 85 bd a3 2b 3f 3d 12 1b f2 bd
       -0.05098808 -0.065031 0.046672475 -0.118215695
0001f0 cc 77 a3 3d de 8c d0 3b 00 58 fd bd 64 32 98 bc
       0.07981834 0.006364449 -0.123703 -0.018578716
000200 6c 7a 76 3d 06 33 7a 3d 8e 92 0d bd 65 02 18 be
       0.060175344 0.061083816 -0.034563594 -0.14844663
000210 6c d5 d6 3d a2 eb 0a 3e 80 f1 c5 3d 66 03 15 3e
       0.10489926 0.1356645 0.09665203 0.14552078
000220 5e 34 c7 bd 6f 52 dc 3b 5a 19 1f 3e 41 ca f3 bc
       -0.09726785 0.006723694 0.15537015 -0.029759528
000230 97 79 0d be 48 fd d3 3d 1e d4 ee bd 09 d7 0b be
       -0.13815914 0.10351044 -0.11661552 -0.13656248
000240 d3 51 82 bd bf ff 88 3d 78 6b 1f 3e f0 44 f6 3d
       -0.06363263 0.06689405 0.1556834 0.120248675
000250 d9 03 b5 bd eb fb 26 3e 8c d8 d4 bd b1 93 dc bc
       -0.088386245 0.16307037 -0.103928655 -0.026925894
000260 32 9e 1a 3e 45 cf 93 bb cf f0 f0 3d ec 91 42 3d
       0.15099409 -0.0045107924 0.117646806 0.047502443
000270 dc 2d bd 3d 05 aa d6 3b 96 f4 1b 3e f2 ee 19 3d
       0.092372626 0.0065510296 0.15230021 0.03758139
000280 a3 c3 0b 3e bd fd 26 bd 46 9a 44 3d 4e d8 c1 bd
       0.13648848 -0.040769327 0.04799869 -0.09465085
000290 c6 7b 9f bd 84 f9 55 be fd ef aa bc 48 0c 0e be
       -0.0778728 -0.20895964 -0.020866388 -0.13871872
0002a0 f1 de 90 bd 64 8f 0c 3e 7e e0 17 3e 3d b3 e0 bd
       -0.07073773 0.13726574 0.1483173 -0.10971687
0002b0 3e a4 94 bd 88 ed 2c 3e f7 0b 3b 3e dc 95 6c 3d
       -0.07257889 0.16887486 0.18266283 0.057760105
0002c0 3c 51 41 bd 92 01 4d 3d c8 09 6b bd d9 57 2a 3d
       -0.04719661 0.050050326 -0.057382375 0.041587684
0002d0 4c 99 35 be 5f bb 90 bd 38 a8 d1 bd e6 0b 09 be
       -0.1773426 -0.07066988 -0.10237163 -0.13383445
0002e0 ba 02 ac 3a 7a ab 46 bc 6c e6 f7 bd 11 7a 90 bd
       0.0013123371 -0.012125844 -0.12104496 -0.07054532
0002f0 20 6c dd 3d 4a 32 86 3d b4 3a 19 3e 6b bd b2 bd
       0.10811639 0.065525606 0.149638 -0.08727535
000300 3d cf d7 bd fe 14 7b 3d db ee f1 bd 91 a1 fd bc
       -0.105375744 0.061299317 -0.11813136 -0.03096083
000310 72 26 a7 3d 25 57 0f be 74 ba 45 3d 41 64 33 be
       0.0816163 -0.13998087 0.04827352 -0.17518713
000320 12 36 99 3d 2b d2 cc ba 81 cd b9 3c fb 8d 73 3b
       0.07481016 -0.00156266 0.022681 0.0037163484
000330 04 ce d6 3c 06 40 cf bd ca 66 87 bd 48 28 80 bd
       0.026221283 -0.101196334 -0.06611402 -0.06257683
000340 23 0f 22 bd 60 c7 11 3e 89 7f b3 bd 93 3b 01 bd
       -0.039565217 0.14236212 -0.0876456 -0.031550955
000350 4d f3 19 be be 11 03 3e 7a 54 23 be e4 20 2f 3c
       -0.15034218 0.12799737 -0.15950194 0.010688994
000360 17 f2 b2 3d ed 03 d4 bd ef 7e 66 bd e2 06 1e be
       0.08737581 -0.10352311 -0.056273397 -0.15432313
000370 0d 80 cb 3d c9 fe 8d 3d 89 2d 0f 3e c2 7a c5 3d
       0.09936533 0.06933362 0.13982214 0.09642555
000380 76 1c a8 bd f2 b8 47 bd e7 53 60 bd 96 e8 96 3c
       -0.082085535 -0.048760362 -0.054767516 0.018421452
000390 44 5f df 3c f0 a1 d0 3b ad bb 2c bd 0a d3 07 3d
       0.027267106 0.0063669607 -0.04217117 0.033160247
0003a0 e9 e8 81 3d ef a6 81 3d b7 2d d2 3d 0d 47 11 be
       0.06343252 0.06330668 0.10262626 -0.1418726
0003b0 e7 bd 0a bc b6 cc 64 3d a9 b1 23 bd 9f 6b 07 3d
       -0.008468128 0.05585929 -0.03996435 0.03306162
0003c0 0b ff f3 bd 3e 83 17 3e e8 29 82 bb 26 89 a8 bc
       -0.1191388 0.14796159 -0.003972281 -0.02057321
0003d0 2d ea ec bc e0 a2 ed bc 0c 6b c5 bc bd 4f 2a 3e
       -0.028920257 -0.029008329 -0.024098895 0.1663198
0003e0 26 96 01 be 36 ba 65 bc 00 f2 fc 3d 1c 34 19 bd
       -0.12654933 -0.014021447 0.12350845 -0.03740321
0003f0 7a bb eb 3d 67 b4 12 be 58 7c 6d 3d 4a 94 11 3e
       0.11510368 -0.1432663 0.05797991 0.14216724

StatefulPartitionedCall/sequential/dense/MatMul/ReadVariableOp:0 f4 [576, 256]
000000 8a 55 89 b9 83 46 7e bd cc 60 60 3d bd d5 52 bc
       -0.00026194408 -0.062078964 0.054779813 -0.012868342
000010 f8 08 24 3d eb f5 80 bd 1c fb 18 bd 33 c3 46 bd
       0.040047616 -0.06296905 -0.03734885 -0.048526
000020 cf d7 27 bd 6c 99 49 3d 57 72 6b bd 8f 00 81 3d
       -0.040977295 0.04921858 -0.05748209 0.06298935
000030 d5 7a 9c bb 8b 9a 44 bd 0c 35 bd 3d 86 56 a1 bc
       -0.004775385 -0.047998946 0.092386335 -0.019694578
000040 6f cf c8 bc c2 18 31 bd b6 90 89 bc 95 22 df bc
       -0.024512975 -0.0432365 -0.016792636 -0.02723817
000050 26 99 40 3d 35 3c fe 3b 3c 14 93 bd 1c 53 20 bd
       0.047021054 0.007758642 -0.07181594 -0.03914176
000060 4e 54 b3 3d 4b 03 05 3d ae 16 23 3d 19 f5 9a 3d
       0.08756314 0.032473844 0.03981655 0.0756628
000070 8a 88 a1 bd c6 b4 a0 3d 5d b2 94 bb 0d f6 92 bd
       -0.07887371 0.0784698 -0.004537864 -0.07175837
000080 94 c3 83 bd c6 a4 4f 3d 81 d0 4d 3b b5 1d 70 3d
       -0.06433788 0.05069425 0.0031404796 0.05862208
000090 62 8c d5 3c c4 bb 5f b9 95 d5 9a bd a7 86 1e bc
       0.026067916 -0.00021336885 -0.07560269 -0.009675658
0000a0 28 4f 22 bd f3 9f 68 bd 97 e2 40 bc cf 12 43 3d
       -0.03962627 -0.056793164 -0.011772773 0.04762536
0000b0 5b e3 18 bc 89 e6 8e bd 84 9d fe 38 28 4f aa bd
       -0.0093315495 -0.06977565 0.000121410034 -0.08315879
0000c0 2e e4 26 bc 5f 17 10 bd 83 be 9c 3a ec 8b ff bc
       -0.010186238 -0.03517854 0.0011958632 -0.03119465
0000d0 22 b1 30 3b d3 b0 12 bd da 63 9e bd da bb ae 3d
       0.0026961048 -0.035813164 -0.07733889 0.085319236
0000e0 95 19 b9 3d a6 c7 7d bc 31 b9 b7 3c 05 b8 79 bd
       0.090380825 -0.015489494 0.022427173 -0.06096651
0000f0 00 3c 08 bd 4f 4c 82 bd 7a cc 6c bd 2f 0c a4 3d
       -0.033260345 -0.06362211 -0.05781219 0.08010136
000100 16 f4 14 3d 4a f3 3a 3d 7d a7 c3 3d ad 52 09 3d
       0.03636559 0.045642175 0.0955343 0.03352611
000110 c7 95 79 3c 69 3f bf 3c ba 94 4c bd 04 50 92 3d
       0.015233464 0.023345666 -0.049946524 0.07144168
000120 de 58 76 3d 88 54 7a 3c c7 b1 fc bc 40 50 91 bd
       0.060143344 0.015278943 -0.03084649 -0.070953846
000130 b3 a7 21 3c 42 69 e8 3c 40 ab b6 bc ee 35 e3 3c
       0.009866643 0.028370503 -0.022298455 0.027735677
000140 f3 2d 78 bd c3 44 02 3d 1d 6f 2c bd 05 ab 54 bd
       -0.060590696 0.031803858 -0.042098153 -0.05192091
000150 10 c9 87 bd d5 9b aa bd c1 dc 21 bd d4 38 b7 3c
       -0.066301465 -0.08330504 -0.039517168 0.022365965
000160 29 03 6a 3d 73 58 96 3d f6 ae 91 ba 55 b4 84 3d
       0.05713192 0.07341089 -0.0011114764 0.06479708
000170 52 c7 43 3c 13 63 98 bd 56 7a 46 bd 10 09 f7 3c
       0.011949377 -0.07440772 -0.048456512 0.030155689
000180 bc 6d a0 3c ca 8e 3f 3b c8 9a 32 bc 1d 3d 5c bd
       0.019583575 0.0029229396 -0.010901161 -0.05376922
000190 f2 b8 e7 bc 2d b7 09 bc bb 1f 27 3b 56 2e 34 bd
       -0.028286431 -0.008405489 0.002550109 -0.043989502
0001a0 66 b4 52 bd c7 12 aa bc 66 c8 74 bd b7 77 8f bc
       -0.051441573 -0.020760907 -0.059761427 -0.01751314
0001b0 f4 00 d1 bc 2d 9c 7b bd 2b e3 20 3c 2c c9 a0 3b
       -0.02551315 -0.061428238 0.009819786 0.004906794
0001c0 be 41 83 3d ae 7a 2d 3d 6c fa 0e 3c 15 c2 7f 3d
       0.06409024 0.042353325 0.008726697 0.06244095
0001d0 3f 78 a9 3b 68 07 3e 3d 00 bd 7e 3c c9 11 3d bc
       0.005171805 0.046393782 0.015547991 -0.011539885
0001e0 50 e9 4b 3d 15 c8 3c bd 88 84 97 3d 61 b9 aa 3d
       0.04978305 -0.04608925 0.07398325 0.083361395
0001f0 72 4f d8 3c 1a 0c 95 3d 43 a3 a7 bd 5c d2 93 3d
       0.02640507 0.07277699 -0.081854366 0.07217857
000200 ec e2 bc 3c ed eb 23 bd 29 6d ec bc b2 77 7b 3c
       0.023057424 -0.04001992 -0.028860645 0.015348362
000210 6b 04 24 3d 76 b4 7a 3d 7e 58 01 bc c9 c6 6f bd
       0.040043276 0.061207257 -0.007894633 -0.058539186
000220 65 fe 05 3d bd 4e 8a 3d f6 74 9b 3d 15 86 22 3d
       0.032713313 0.067532994 0.07590668 0.03967865
000230 8d 08 16 3c 19 cf 87 bd 76 45 9d bd 8f 53 49 3d
       0.009157312 -0.066312976 -0.07679264 0.049151953
000240 b1 cb 7a 3d 62 ee b0 3d b5 97 9c 3d 06 c3 0b bd
       0.06122941 0.08639218 0.07646123 -0.034121536
000250 1c 31 87 3c ea 9c 84 bd 88 47 9f 3d 6b dc ce bb
       0.01650291 -0.064752415 0.077773154 -0.006312897
000260 33 4b 88 bd 2b 2e 89 bd 8e f0 96 bd 95 22 3a bd
       -0.06654968 -0.06698259 -0.07370101 -0.045443136
000270 fe 34 2c bc df 70 48 3d 96 61 ab bc 1e 3a fc bc
       -0.010510681 0.048935767 -0.020920556 -0.030789431
000280 d0 ae cb bc 25 e2 79 3d 54 02 77 3d 58 49 ab 3d
       -0.02486363 0.061006684 0.060304955 0.083635986
000290 3f 51 06 3d db 7d 4c bd 68 f8 13 bd 7e fb 4b 3d
       0.032792326 -0.049924713 -0.03612557 0.04980039
0002a0 ef c7 1f bd a3 f5 63 3d 56 21 a8 3d 35 86 78 3d
       -0.03900903 0.05565418 0.08209483 0.060674865
0002b0 6b 6e 0a 3d fc b7 5a bc 62 c7 be bd 95 c1 82 bd
       0.03379671 -0.013349529 -0.09315373 -0.06384579
0002c0 8e d5 a8 3c ad f3 25 3d aa 52 8b bd 4c f1 91 bc
       0.020609643 0.04051559 -0.06802876 -0.017815255
0002d0 92 37 1d 3c ca 9a 55 bd c5 8d fd 3d 23 ba 6a 3d
       0.0095957685 -0.05214957 0.12380556 0.05730642
0002e0 0c 1e 28 bd c4 30 4f 3d 2b cc b4 3d 6e 9e 23 bd
       -0.04104428 0.050583616 0.088280044 -0.039946012
0002f0 ae b1 2e bd 69 24 ae bd 94 f7 13 bd a3 7d 50 3d
       -0.042649917 -0.085030384 -0.03612478 0.050901067
000300 a4 bd 60 bc a9 93 4b bb 71 d2 99 bd 05 28 04 bd
       -0.013717089 -0.0031063354 -0.07510842 -0.032264728
000310 40 dd a2 bc 2a a2 ac bd 93 53 78 bd 70 ae 02 bd
       -0.01988089 -0.08429368 -0.060626578 -0.031904638
000320 53 2b ee ba 37 49 b3 bc e3 8b a4 3c d4 ec 05 bd
       -0.0018170871 -0.021885497 0.020086234 -0.03269656
000330 6d 6b b1 3d 56 f5 98 3d 89 29 70 3d 18 3b 3f 3a
       0.08663068 0.07468669 0.05863336 0.00072948774
000340 2d 0b 15 bd 22 2b ab 3d 48 ff 89 bd 4c f1 a5 3d
       -0.03638761 0.08357836 -0.06738144 0.08102664
000350 d0 52 9b 3c b1 84 10 3d 81 b7 fd bc 73 df 10 3d
       0.018960387 0.035282794 -0.03097129 0.035369348
000360 cc 4d 22 bd 40 69 3b bd 34 05 9a 3d 8b 91 8f 3d
       -0.039624974 -0.04575467 0.07520524 0.07010182
000370 2e e9 78 3d 22 58 4f 3d f6 98 b0 bc 9a 0c 95 3d
       0.060769252 0.05062116 -0.021557312 0.07277794
000380 3b d5 a6 3d 40 97 ab bd 7a a5 6d bb 26 46 23 3d
       0.08146139 -0.08378458 -0.0036261962 0.03986182
000390 e4 f7 ea 3c 6f 52 21 3d f1 bd 41 bd b1 09 86 bd
       0.028682657 0.039385255 -0.047300283 -0.06544817
0003a0 77 50 f1 3c 15 2d a0 bd 15 5a e2 bc 73 c3 23 bd
       0.029457314 -0.07821099 -0.027630845 -0.039981317
0003b0 b8 8c 02 bd e6 fa a7 bc d3 f8 90 3d c9 fe 31 bc
       -0.03187248 -0.02050538 0.070787095 -0.010863968
0003c0 02 7a f2 bb d5 77 1f 3d e3 e9 34 3d 50 1f 6d bd
       -0.0073997984 0.03893264 0.044168364 -0.05789119
0003d0 bf 28 25 bd 6f 60 d8 bc 14 43 c5 3c c3 7d 99 3d
       -0.04032206 -0.02641317 0.024079837 0.0749469
0003e0 e0 6a 69 bd 39 ae f4 3c 95 71 d0 3c 8e a8 29 3d
       -0.05698669 0.029868232 0.025444785 0.041420512
0003f0 d5 ed 47 3d 1d 39 57 bc 93 ca fa 3b 34 22 0e 3d
       0.0488108 -0.013136175 0.0076535433 0.034700587

StatefulPartitionedCall/sequential/dense/BiasAdd/ReadVariableOp:0 f4 [256]
000000 48 e6 03 bc 5e 57 b3 38 13 fd 8e 3b 08 8d 27 bc
       -0.008050509 8.5516585e-05 0.004363665 -0.010226496
000010 d6 7d a2 3b d4 2e 8a 3b c3 f5 bc 3b 83 16 bf bb
       0.0049588485 0.004217008 0.005766602 -0.005831541
000020 11 f2 1d 3b 55 8e 52 3a be d2 95 39 34 11 dc 3a
       0.0024100582 0.00080320734 0.0002857651 0.0016789795
000030 60 be 47 bb 4c af 1a 3c b1 02 88 3c 62 83 e8 3a
       -0.0030478463 0.009441208 0.016602846 0.001773935
000040 45 17 a2 3a 4b d6 13 bb 4d 71 30 bb 59 39 4b 3b
       0.0012366554 -0.0022558148 -0.0026923001 0.0031009524
000050 79 7c d8 bb b0 49 f9 ba 8b b4 c8 3b 5e 11 d5 bb
       -0.006606635 -0.0019019153 0.006125038 -0.0065023145
000060 32 dd 1b 3b c2 1d 23 3b 8d 27 8d bb 83 b6 f8 bb
       0.0023782966 0.0024889563 -0.0043076933 -0.0075901165
000070 7e 71 30 bb 55 29 38 3b d7 03 94 3b ff 9c c7 3a
       -0.0026923115 0.0028100808 0.0045170593 0.0015229284
000080 3a c0 9d 3a e0 34 d0 bb 3a 33 49 39 ec 9f bc bb
       0.0012035437 -0.0063539594 0.00019187937 -0.005756369
000090 ef 9b 8b 3b 77 2a 91 3b c2 6b 33 3b 88 4b 88 3b
       0.004260532 0.004430111 0.002737746 0.0041593947
0000a0 98 a4 71 3b cc 9a ed b9 c1 db 89 ba 7c 5a 14 3b
       0.0036871787 -0.00045319495 -0.0010517762 0.002263694
0000b0 2b 4e 0d 3b 6a 31 35 3b 87 75 d7 3b 00 00 00 00
       0.0021561484 0.0027647861 0.0065752896 0.0
0000c0 7f 98 85 3b ef 90 57 bb cf ca 11 bc 23 ae 00 bc
       0.004077017 -0.0032892784 -0.008898451 -0.007854017
0000d0 30 53 40 3a fc 5f 1d bc a7 04 67 bb 73 0e 46 3b
       0.00073366147 -0.009605404 -0.0035250576 0.0030221015
0000e0 32 81 f8 39 de 26 90 3b c8 c5 26 3b 65 6c 68 39
       0.00047398504 0.0043991646 0.0025447477 0.00022165624
0000f0 b2 90 0f bc d3 c6 ba 3a e9 8d 8c 3a 42 ef 70 bb
       -0.008762525 0.0014249928 0.0010723445 -0.0036763703
000100 14 4d c4 bb f9 b1 84 3b 2a 95 2b 3b 1a 4f e3 bb
       -0.0059906337 0.0040495363 0.0026181438 -0.00693692
000110 e6 8f 34 3b c7 9e d1 3b 18 01 76 bb 34 69 c4 3b
       0.002755159 0.0063971016 -0.0037537273 0.0059939865
000120 68 e7 91 bb 20 54 ae ba 9e 82 18 3b 15 31 15 3b
       -0.0044526346 -0.0013300218 0.0023271213 0.002276485
000130 7c 4b 34 bc 34 91 cb 3b 24 2b 1c 3b e0 4e 5a bb
       -0.011004325 0.006212378 0.0023829425 -0.0033311173
000140 66 d0 2e 3c 9f 7c 80 3a ac 38 03 bb 6d 21 46 3b
       0.010669803 0.0009802765 -0.0020022793 0.0030232326
000150 8c 7e 6d 3b 15 01 75 bb 56 61 c0 3b a3 0c d8 3b
       0.0036238758 -0.0037384678 0.0058709783 0.0065933033
000160 42 3c e1 3b 4b 3e d4 3a 61 40 d4 3a 12 60 04 3b
       0.0068736384 0.0016192881 0.0016193503 0.0020198864
000170 bd 25 a9 3a 3f 9c 24 3c a7 dd 14 3c 47 b2 6c ba
       0.0012904924 0.010047018 0.009086049 -0.0009029251
000180 68 ee cf bb cb 5a a7 ba fb dd 4e 3c 7b a5 c4 bb
       -0.006345559 -0.0012768147 0.012626166 -0.006001172
000190 ca 6d ad bb d9 98 5f 3b 2d f8 b2 3b af b6 c9 3b
       -0.005292629 0.0034118204 0.0054617138 0.006155811
0001a0 c9 21 8e bb 41 1d 25 3b 6c 8b af 3b 52 6a c6 3a
       -0.0043375236 0.0025194439 0.0053571966 0.0015137887
0001b0 3e e5 27 ba 80 a0 b9 bb 09 d4 ac 3b c3 d1 02 3b
       -0.0006404704 -0.005664885 0.0052743 0.0019961454
0001c0 3a 97 1a 3c 82 6c 25 3b ba 21 08 3b 93 98 fc b8
       0.009435469 0.0025241678 0.0020772056 -0.000120447155
0001d0 29 db ae 38 88 ed 33 3c 5b 19 0b bb 2c e7 10 3b
       8.337788e-05 0.010981925 -0.002122483 0.0022110445
0001e0 ed e5 14 bb a2 27 62 3a 9e 38 cc ba a6 08 b5 b9
       -0.0022720054 0.00086271216 -0.0015580838 -0.00034529454
0001f0 5c 53 b4 3a 64 44 ec 3a 68 59 86 ba 75 e1 6f 3a
       0.0013757753 0.0018025753 -0.0010250034 0.0009150722
000200 2e 0b 96 bb 11 0a 4b 3b ac 7e d1 bb 3d b9 32 b9
       -0.0045789694 0.0030981342 -0.0063932743 -0.0001704441
000210 4b d2 2f bb 55 12 e8 bb 08 47 d6 3a bf da 91 3b
       -0.0026828225 -0.0070822635 0.0016348073 0.0044511254
000220 40 6e 53 3c 44 26 ae 3a 15 b5 b9 3a e8 aa c2 ba
       0.012904704 0.001328655 0.0014168347 -0.001485196
000230 15 6c 8f ba 41 a6 65 3b 3d cc 06 bc 67 12 8a 3b
       -0.0010942245 0.0035041722 -0.008227405 0.0042136195
000240 8b c7 0f bb 40 f3 0a 3c f6 50 7d 3c 1f 8e 23 bb
       -0.0021939005 0.008480847 0.015461197 -0.0024956537
000250 9e e8 5c 3b 0b 56 bb 3b 25 12 10 bb ba a0 36 bb
       0.0033707987 0.005717044 -0.0021983471 -0.0027866797
000260 bc 4f 29 3c 33 4f a0 bb 17 7c 3e 3b d1 bc 6d bb
       0.010333952 -0.004892254 0.0029065663 -0.0036275873
000270 c9 10 94 3b 19 9b 04 bc 07 8c ac 3b 62 fa b2 3b
       0.0045186025 -0.008093619 0.005265716 0.005461977
000280 38 1c 1e 3c f2 56 5b bb 69 bb f0 3a 3b 4b 35 bb
       0.009650283 -0.0033468571 0.00183664 -0.002766325
000290 a0 7d 29 3c a3 6f 85 3c d8 f8 42 3a d7 52 6a bb
       0.010344893 0.016288584 0.00074375933 -0.0035754943
0002a0 5b ab 6c bb 2a 6e 49 3b 8c 85 c9 3b 09 f8 d8 b8
       -0.0036112878 0.003073583 0.006149953 -0.00010345883
0002b0 95 0d 0d 3b c0 38 db 3b f9 b0 bd 3a 11 12 6d 3b
       0.0021522988 0.0066901147 0.0014472298 0.0036174098
0002c0 85 19 40 ba 84 47 89 3b 16 ee 03 bc 2f be 50 3b
       -0.00073280215 0.0041894335 -0.00805237 0.003185164
0002d0 d8 01 f4 3b 44 a2 c4 bb 8f 24 a0 3c 49 3f 60 ba
       0.007446509 -0.006000789 0.019548682 -0.0008554352
0002e0 1e 44 05 bc 56 5c c3 bb 61 0f b1 ba 39 5e fa bb
       -0.008133916 -0.005961935 -0.0013508612 -0.0076406267
0002f0 77 b9 44 3b 9d a4 c6 3b 8e da 1a 3a 90 8a 8e bb
       0.0030017772 0.006062104 0.0005907201 -0.004350014
000300 96 fe c4 ba 22 54 29 bc 2a 9e 15 bc f2 de cd 39
       -0.0015029486 -0.010335 -0.0091319475 0.00039266754
000310 b5 31 05 3b 6e f8 64 3a 06 84 44 3b 1d a5 66 3b
       0.0020323817 0.00087345287 0.0029985919 0.003519363
000320 de ce 85 bb 9d 74 69 bb 72 70 7d 3b 1f f2 35 bb
       -0.0040834984 -0.0035622485 0.003867176 -0.0027762724
000330 04 e1 14 3c 73 44 0d 3b 97 5e 9b 3b 9a 56 00 3b
       0.009086851 0.0021555691 0.0047415006 0.0019582869
000340 25 34 f0 bb 40 fb 5a 3b 0b 55 ea 3a 26 2b c4 3a
       -0.007330435 0.0033413917 0.0017878128 0.0014966473
000350 95 f0 03 3c a6 a9 52 3b 0f e8 21 3a fc f5 0b 3b
       0.008052965 0.0032144575 0.0006176242 0.0021356335
000360 7d 87 8d 3b 21 3d 27 3b cd 5e 78 b9 8e 22 fc 3a
       0.00431913 0.0025518613 -0.00023686439 0.0019236372
000370 04 0e dd 3b c4 f4 2d 3b 5c 00 a9 3b 9b 31 c8 bb
       0.0067460556 0.0026543597 0.0051575135 -0.006109429
000380 11 87 05 3b af 54 03 3b 71 ad e0 ba 03 3e 84 bb
       0.0020374695 0.002003949 -0.0017141533 -0.0040357127
000390 19 f4 f0 3a ee 82 58 ba 41 07 01 bb ce 8b 05 3b
       0.0018383294 -0.0008259256 -0.0019688162 0.002037752
0003a0 4e d6 e2 bb 82 0d 31 3b 14 65 4d 3b f5 02 98 b9
       -0.0069225198 0.0027016108 0.0031340765 -0.00028993902
0003b0 53 7c 17 bc 2d f5 c2 3b 80 65 c4 bb 2c d8 57 3b
       -0.00924595 0.0059496374 -0.005993545 0.0032935245
0003c0 a8 fa ca 3b 81 89 ce 3b de be b5 ba a4 38 cb bb
       0.0061944313 0.006303013 -0.0013866087 -0.0062018204
0003d0 23 13 73 ba 2a ce d6 3a 6c 8a 1f bb 77 04 22 3b
       -0.0009272566 0.0016388346 -0.002434398 0.00247219
0003e0 7e 56 13 bb ea 4b 15 bb 15 7c 10 39 44 ee 0a 3b
       -0.0022481973 -0.0022780844 0.00013779134 0.0021199146
0003f0 0f 54 cb b9 2f 04 0a bc e5 30 82 3b 1f 71 7a 39
       -0.00038781806 -0.008423849 0.003973114 0.00023883999

StatefulPartitionedCall/sequential/conv2d_4/BiasAdd_weights_fused_bn f4 [16, 32, 3, 3]
000000 47 8a b3 bd f6 42 83 bd 89 02 07 be 92 56 0e bd
       -0.08766609 -0.06409256 -0.13184561 -0.03475053
000010 43 bc 01 3e 60 fe 8c 3d 97 3d 8b 3d 1e de dc 3c
       0.12669472 0.06884456 0.06798857 0.026961382
000020 10 0d 13 3d 7c 60 42 3d 11 68 eb 3d e8 1f 04 3e
       0.03590113 0.047455296 0.114944585 0.12902796
000030 57 e9 be bd 19 9f b4 bc af ad e1 3c 02 82 d6 3c
       -0.0932185 -0.02204852 0.02754864 0.02618504
000040 dc ce 9d bd 76 85 c6 bd d9 45 05 3e b7 0e 80 bc
       -0.07705471 -0.096934244 0.13014926 -0.015632017
000050 f8 c8 9a 3d 76 69 b0 3d 65 a2 09 be 64 6e 0f 3e
       0.07557863 0.08613865 -0.13440855 0.14006954
000060 68 d8 cc 3c ef d4 9b 3d c3 3d ba bd ae ae 2e b9
       0.025005534 0.07608973 -0.09093811 -0.00016659006
000070 54 15 0d be 1a f7 3b 3d fc c3 90 bc 21 9d 5b bd
       -0.13777667 0.04588995 -0.017671578 -0.053616647
000080 2e f8 97 bd 0c 81 65 ba 23 e7 03 3e ea 3d c8 bc
       -0.074203834 -0.0008754886 0.1288114 -0.024443585
000090 19 d1 d1 bd 9d 0a 8c bc 2f c8 d2 3d f4 fe ef 3d
       -0.1024496 -0.017094905 0.10292088 0.1171855
0000a0 76 35 78 3d 22 15 a9 bd c5 59 b4 3d 78 f3 cd 3d
       0.06059786 -0.08255984 0.08806185 0.100562036
0000b0 5b 69 04 bd 50 b0 5a 3d a8 6b 4e 3d e7 07 03 3e
       -0.032327037 0.0533908 0.050395638 0.12795983
0000c0 3c 71 fc 3d 86 ee e9 b9 83 24 cf bd fe ec 3a bd
       0.12326285 -0.00044618937 -0.10114386 -0.04563617
0000d0 5d 71 07 be c6 17 03 be 44 bc b1 3d a7 7e 1b bd
       -0.13226838 -0.12802038 0.08678487 -0.037962582
0000e0 58 ba 1b bd 6e 5e a5 bd 1d 17 d2 bc ab 63 23 3d
       -0.038019508 -0.08074652 -0.025645787 0.039889973
0000f0 03 e0 d7 bd 9a e7 f3 3c 87 e9 a1 3d a1 91 65 b9
       -0.10540774 0.029773522 0.0790587 -0.00021893393
000100 f7 e7 41 3d e1 87 2e bd 37 32 ab 3d 1e 05 97 bd
       0.04734036 -0.042610053 0.08359187 -0.07374023
000110 25 2f ae 3d 3a c8 da 3d f9 21 1e bd 0c d5 ce 3d
       0.08505086 0.106827214 -0.038606618 0.10099229
000120 98 b9 95 bc 11 ed 76 bc 4a b2 2b 3d 13 4a d6 3d
       -0.018276975 -0.0150711695 0.041918077 0.10463347
000130 f3 a4 98 bd a4 ec 68 3c 22 59 b5 bd 03 dc 67 bd
       -0.074533366 0.014216576 -0.08854891 -0.056606304
000140 f8 80 c7 3c bd 9b 26 bd e4 84 b8 bd de e6 ec bd
       0.02435349 -0.040675867 -0.09009722 -0.11567472
000150 9c 79 44 bd 8b a4 0e be a0 38 0e be 58 5e 8c 3d
       -0.04796754 -0.13929956 -0.13888788 0.06853932
000160 f0 51 05 3e af c2 18 bd ca 42 01 3e f2 85 22 3d
       0.13019538 -0.03729504 0.12623134 0.03967852
000170 65 40 a4 3c 2a e0 f3 3d e4 d2 c9 bd 5d 88 7c 3d
       0.020050237 0.1190799 -0.09854677 0.061653484
000180 bf db 83 bd a9 81 51 bd d8 5a b6 bd a0 f4 d2 bd
       -0.064383976 -0.051149044 -0.08904046 -0.10300565
000190 5f 3f 28 3d 27 f0 ba bd 3c 3c 16 be c4 88 8c 3d
       0.04107606 -0.09127837 -0.14671415 0.068620235
0001a0 93 f7 d4 3d e6 5c 12 be ae 4d 6b 3b 39 20 dd 3d
       0.103987835 -0.1429325 0.0035904455 0.107971616
0001b0 14 76 dd bd 69 3c 40 3d 6b 28 c0 3d d5 19 59 3d
       -0.10813537 0.04693261 0.09382709 0.05300315
0001c0 5d 7e 2a 3d 6d 5f 31 bd b8 23 b8 3c 32 85 a1 bd
       0.041624416 -0.043303896 0.02247797 -0.07886733
0001d0 f0 36 6f bd b3 c8 a4 3c b4 6b 85 bc 67 03 de 3d
       -0.058402 0.020115232 -0.016286708 0.10840493
0001e0 f2 fa 93 bd c3 d5 9e bd ae c7 0b bd f5 66 6b 3b
       -0.072255984 -0.077556156 -0.034125976 0.0035919521
0001f0 61 b5 49 3d 0e e8 df 3d 9e 78 a3 bd 4c 38 1e bc
       0.049245242 0.10932933 -0.0798199 -0.009656977
000200 46 05 db bd 80 8b b2 3d d5 b8 e1 bd 10 1b 2b 3d
       -0.10694365 0.08718014 -0.11021582 0.041773856
000210 cd 04 71 bd 65 fc b6 3d 60 97 a3 bd 78 84 05 be
       -0.05884247 0.08934859 -0.07987857 -0.13038814
000220 84 bc 03 bd 22 77 5e 3d b2 a7 f5 bd 1e 6a 1c 3d
       -0.032162204 0.054312833 -0.11994876 0.03818714
000230 fb 4f f7 bd 37 b5 ac 3d 43 ab 98 bd 2a b3 c4 3d
       -0.12075802 0.084330015 -0.074545406 0.09604485
000240 2e aa 3d 3c 83 43 f3 bd 75 6c a8 bd 79 e0 a2 3d
       0.0115762185 -0.11878111 -0.082238115 0.07952971
000250 c6 cd c1 bd 4f 97 04 3c 75 af ca 3d 13 68 97 3d
       -0.09463076 0.008092715 0.09896747 0.073928975
000260 bc 11 24 3c fd dc 62 3d 21 2e 01 bd 24 82 c3 3c
       0.010013994 0.055386532 -0.031538133 0.023865767
000270 30 82 42 3d 60 b3 d3 bd 14 27 a0 bd 21 5e dc 3c
       0.047487438 -0.103369474 -0.078199536 0.026900353
000280 50 6e 0a 3e 6f 90 8d 3d cb 96 a0 bd 5c 9b df 3d
       0.13518643 0.06912314 -0.078412615 0.10918304
000290 73 c5 d3 3d a0 be 41 3d 84 d1 f6 3d c5 0c 9e bd
       0.10340395 0.047300935 0.12051681 -0.07717279
0002a0 3f 51 d8 3d 4a 93 46 3d 6b 1c 04 bd 39 c7 ee bd
       0.105623715 0.04848031 -0.032253664 -0.116590925
0002b0 2c 07 4c bd 7a 6c 5f bd 79 9d 07 be 3a 78 24 bd
       -0.049811527 -0.05454681 -0.13243665 -0.04015372
0002c0 0a 7d 03 3d b8 4c fb bd 52 1b 82 3d fb 4e e3 3d
       0.03210167 -0.12270492 0.06352867 0.11099049
0002d0 b1 9b b2 3b 82 cc 9f bd 26 98 95 bd 45 ab 65 3d
       0.005450689 -0.07802679 -0.07304411 0.05607154
0002e0 66 ae ed 3d b0 c2 aa bd 9a c0 7a bd 98 1e 8a bc
       0.116055295 -0.08337915 -0.061218835 -0.016860291
0002f0 25 ab d8 3b 03 4e 54 bd 3a aa 12 3e 63 52 11 3c
       0.006612199 -0.05183221 0.14322749 0.00886974
000300 23 0f a6 3d 48 0b a8 bd 81 2a 50 3d df 8d ae 3d
       0.08108356 -0.08205277 0.050821785 0.085231535
000310 6e ef 86 3c 0d 7f ec bc e3 0c 00 be 29 a3 07 3e
       0.01647159 -0.028869176 -0.12504916 0.13245834
000320 a3 03 da bd f4 03 33 3d 42 02 92 3d b7 cc 8e bd
       -0.10645225 0.043704942 0.07129337 -0.0697264
000330 be c9 1b 3e 10 0b 9f 3b f8 bf d4 3b de a1 be 3d
       0.15213677 0.0048536137 0.006492611 0.093082175
000340 ad 82 26 3c 08 77 cd 3d 01 c8 db bd 3d 39 0b 3e
       0.0101629915 0.10032469 -0.10731507 0.13596053
000350 51 f5 cc 3d 86 33 a0 3d 8b 83 79 3a 44 35 bd bd
       0.10007728 0.07822327 0.00095181976 -0.09238675
000360 64 30 96 3d af 46 7e 3d 4c 1c 84 bd 7d 63 22 3e
       0.073334485 0.062079128 -0.0645071 0.15858264
000370 6f 78 e5 3b 5d 7e ff 3d a0 f6 90 bc 06 88 05 3e
       0.007002882 0.12475274 -0.017695725 0.1304017
000380 78 ed 0d bd 64 69 24 3d 4b c7 04 be cb b3 37 3d
       -0.034650296 0.04013957 -0.12966649 0.0448492
000390 93 31 55 bd 5f 84 a0 3b 13 f0 48 bd 89 d6 dd 3d
       -0.05204923 0.0048985924 -0.049057078 0.10831935
0003a0 9f b7 81 3d d5 3f 38 bc b6 42 98 bd 02 43 9d 3d
       0.06333851 -0.0112456875 -0.07434599 0.07678796
0003b0 ab 8c 0d bc fc 37 cc bd f0 4a 8d 3d 88 f4 eb bd
       -0.008639495 -0.09971616 0.06899059 -0.1152125
0003c0 14 fe ff 3d 2c ff c0 bd 3e 36 d7 3d f3 db 3a 3d
       0.124996334 -0.0942367 0.10508393 0.045619916
0003d0 fb b9 88 3d fa 5b 27 3d 01 b7 f4 bb 87 c6 d4 bd
       0.06676098 0.0408592 -0.007468105 -0.103894286
0003e0 ab 4a ab bc fe 6a 53 3d 39 d0 4b bd c5 f1 0f bd
       -0.020909628 0.051615708 -0.049759123 -0.03514268
0003f0 d4 3a a2 3d 60 23 99 3d d5 1c a8 3d 14 cd 69 bc
       0.07921377 0.0747745 0.08208624 -0.014270086

StatefulPartitionedCall/sequential/conv2d_4/BiasAdd_bias_fused_bn f4 [16]
000000 be fe 14 bf 59 60 c8 3e d5 c8 46 bf 6d e3 2e 3f
       -0.58201206 0.39136007 -0.77650195 0.68315774
000010 ba fa b2 bf f3 8b b8 3e ff 82 7b bf db 8f 2b bf
       -1.3982766 0.36044273 -0.9824676 -0.6701638
000020 09 df 16 3d 8b 96 c0 bf 22 09 92 bf 0c 98 fa bf
       0.036833797 -1.5045942 -1.1409037 -1.9577651
000030 3a 22 30 3e de 66 02 bf 70 95 ed 3f 18 ad 59 bf
       0.17200556 -0.5093821 1.856123 -0.85029745

StatefulPartitionedCall/sequential/conv2d_3/BiasAdd_weights_fused_bn f4 [32, 16, 3, 3]
000000 00 9f f3 bb 85 b4 6d 3e f7 b3 12 be 31 5c 26 3e
       -0.0074347258 0.23213394 -0.14326464 0.16246106
000010 10 56 30 3c 87 6e 06 be e9 64 0f 3e d0 8f 69 3e
       0.010762706 -0.131281 0.14003338 0.22808766
000020 7e d5 13 be f0 a7 f2 bb 13 0b a5 3d b1 32 d2 3d
       -0.1443691 -0.0074052736 0.08058753 0.10263575
000030 0c 59 67 3d a4 1a 78 3d e1 71 fd 3b ac 93 3d 3c
       0.056481406 0.06057228 0.0077345227 0.011570852
000040 75 d1 18 3e a0 86 0a be 95 42 4b bd 1a 32 8c 3d
       0.14923652 -0.13527918 -0.049624044 0.068454936
000050 65 02 82 bb f8 2c f8 38 4f 67 e1 3c 9f b7 26 3d
       -0.0039675706 0.000118339376 0.027515082 0.04070246
000060 96 e9 a7 3c b8 06 c1 bd 06 d1 b9 3d f3 37 2b bd
       0.020497125 -0.094251096 0.09073071 -0.041801404
000070 00 9e 0f be 9a fc bc 3d 61 5d 34 3e ec 66 13 3e
       -0.14025116 0.092278674 0.17613746 0.1439473
000080 2d f7 e6 bd b5 9a 54 bd 86 55 d4 bd ea 2d 1c 3e
       -0.11277614 -0.051905353 -0.10367875 0.1525189
000090 04 96 c3 bd 58 e8 a4 3d 6b 84 2a 3d 35 38 07 3d
       -0.095500976 0.080521286 0.04163019 0.033012588
0000a0 34 16 e5 bd c2 33 a5 bd 3e a7 15 3d da 77 2c 3e
       -0.111858755 -0.08066513 0.036536448 0.16842595
0000b0 74 9b 55 3c 50 64 79 3d 41 2c 19 3d 79 9d 2a 3e
       0.013037551 0.06088668 0.03739572 0.16661634
0000c0 df c1 bc bd 8e 5c cf bd 80 aa 67 bc d8 ea 00 be
       -0.092166655 -0.10125075 -0.014139771 -0.12589586
0000d0 3c 79 20 3d 77 d8 40 be e8 54 25 3e 5d 39 82 3c
       0.039178118 -0.18832575 0.1614567 0.015896494
0000e0 60 44 40 bd 7f ad 68 3d 1c 1a d5 bc a7 f5 38 be
       -0.046940207 0.056806084 -0.026013426 -0.18062459
0000f0 95 5f 7e 3d f6 86 f2 3d 09 4f 0c be d3 08 31 bc
       0.062102873 0.11842148 -0.13702025 -0.0108053265
000100 32 c8 c3 bd d1 6f 5d bd b4 51 3f 3e d4 8a 60 be
       -0.095596686 -0.054061715 0.18683511 -0.21927959
000110 ef 39 fa bd 66 25 2c 3e e7 da e1 3d 4e f7 42 3e
       -0.12218081 0.16811141 0.110280804 0.19039652
000120 6f d0 ab bd 1f 5e 04 3e 5d 2b 8d 3c e3 7a 33 bd
       -0.08389365 0.1292653 0.017232591 -0.043818366
000130 40 c3 e4 3d 88 11 12 3d 15 49 f4 bd a1 bd a3 3c
       0.111700535 0.03566125 -0.11928002 0.019987883
000140 a4 2e 0e be 5f e6 e9 bd 0c 92 1e be 12 d6 4f 3d
       -0.1388498 -0.11420893 -0.154854 0.050741263
000150 c7 0c f1 bd 76 9f c8 3d 80 1e e2 3c 33 05 6c bd
       -0.11770015 0.0979604 0.027602434 -0.057622146
000160 a5 5c 9a bc 42 16 42 be 09 d2 1c be 37 95 e7 3d
       -0.018843004 -0.18953803 -0.15314497 0.11307757
000170 0c bb d9 bd 7e 28 84 bd 10 93 26 be 32 f2 e3 bd
       -0.106313795 -0.06453036 -0.16267037 -0.111301795
000180 c6 ee 8f 3d 96 76 eb bd ff 7f ea bd aa 7c 10 bd
       0.07027964 -0.11497228 -0.114501946 -0.03527514
000190 0c cf 6d 3e de 47 5b bd 9b 06 a3 3d f9 b7 da bd
       0.23223513 -0.053535335 0.07960244 -0.10679621
0001a0 75 e8 16 3e 58 db 81 3d ba dc 5c be 92 7c b8 bd
       0.14737113 0.063406646 -0.21568576 -0.09008135
0001b0 b5 dd 32 be 54 69 cd 3b 7c d5 03 3c 56 cc 12 be
       -0.17467387 0.0062686596 0.008046504 -0.1433576
0001c0 a7 95 c5 bb c7 45 ef bd dd db 3b 3e 07 40 1c be
       -0.006029803 -0.11683231 0.1834559 -0.152588
0001d0 d6 a5 97 bd 24 2d 38 be b7 df 3d 3e 65 59 1f 3e
       -0.074046776 -0.1798597 0.18542372 0.15561445
0001e0 3f 75 4f 3e d4 ca 3c be 7c a4 26 3e 43 93 29 be
       0.2025957 -0.18436748 0.16273683 -0.16560082
0001f0 b8 b9 eb 3d b4 3d da 3d 40 98 89 bb 81 32 3b 3e
       0.115100324 0.106563 -0.004199058 0.18280984
000200 7a 66 31 3e 13 36 e5 3d 36 c4 2b 3e 0d 2c 90 bd
       0.17324248 0.111919545 0.16774067 -0.07039652
000210 7a a4 10 3d f0 95 48 be 60 8b 1e be db 3d 90 3d
       0.035313107 -0.19588447 -0.15482855 0.07043048
000220 ab ae 1f 3e 50 e7 72 bc fb aa a0 3c 0d ea a8 3d
       0.15593974 -0.014825657 0.01961278 0.08247767
000230 aa dd 2f be 50 1d 1c be 79 6a 52 be b8 96 1a 3e
       -0.17174402 -0.15245557 -0.20548429 0.15096557
000240 15 fc 0c 3e 2e 81 a5 3c d2 e7 ad 3d d8 04 a0 bd
       0.13768037 0.0202032 0.08491482 -0.07813424
000250 fd 83 59 3d ed b7 ab 3d 43 b2 e7 bc 77 8d 0c be
       0.05310439 0.083846904 -0.028283244 -0.1372584
000260 82 4b 98 3d 51 23 bd bc 4c 46 e0 3d b8 bf 21 bc
       0.07436277 -0.02308813 0.10950908 -0.0098723695
000270 f0 0d 84 3b 58 ce a5 3c 1b 25 b1 bc 78 c8 8e 3d
       0.004029982 0.020239994 -0.021624139 0.0697183
000280 f2 7e ec 3d 35 52 82 3d fd 0f f8 3c 2e 1a 47 bd
       0.115476504 0.06363336 0.030281061 -0.04860895
000290 ec 6d 84 3c e9 b3 9b bd 95 82 8e 3c cc 33 54 bd
       0.016165696 -0.076026745 0.01739625 -0.05180721
0002a0 b4 e6 f0 ba 99 39 92 bd eb ce 8f 3c 10 31 9f 3d
       -0.0018379302 -0.07139892 0.01755472 0.0777303
0002b0 0f 00 16 3e 1c bd de bc 3a 56 a5 bd 47 60 c5 3c
       0.1464846 -0.027189784 -0.08073087 0.02409376
0002c0 af 61 03 3e 0b 77 5f 3d 5c 43 51 bd dd 86 93 bd
       0.12830232 0.054556888 -0.05108963 -0.072034575
0002d0 39 12 51 bd b6 47 f0 bd ce b4 9c 3b 1d b2 5c 3d
       -0.05104277 -0.11732428 0.004782296 0.0538808
0002e0 5e a3 b9 bd 0b 8c bd bc 35 3d 92 3d f0 c8 06 bd
       -0.09064363 -0.023138067 0.071405806 -0.032906473
0002f0 e9 a4 e1 3d 97 7a e0 bd 37 9f 50 bd 7b 7f 02 be
       0.11017782 -0.10960882 -0.05093309 -0.12743942
000300 20 19 0f 3d c8 91 4e 3d d8 20 92 bd 15 da b2 bd
       0.03493607 0.050431997 -0.07135171 -0.08733002
000310 bd 6a f4 3d b2 d5 4b bc 8f ae 07 bd 12 ee 12 3d
       0.11934421 -0.012441086 -0.033125456 0.035871573
000320 e8 be 81 bd 87 80 32 bd 61 9b a9 bb ee 1b 4a bc
       -0.063352406 -0.043579604 -0.0051759933 -0.0123357605
000330 b2 88 12 3e 24 7e be bd 51 6a c1 3d 19 0b d2 3c
       0.14309958 -0.09301403 0.09444106 0.025640057
000340 c2 52 19 3d 37 74 8e 3d dd 27 04 3d 9c c5 c5 bd
       0.03743244 0.0695576 0.03226458 -0.096568316
000350 a7 cf a2 3d 48 eb bc 3d a2 41 d7 3d 56 89 0b bd
       0.07949763 0.09224564 0.10510565 -0.03406652
000360 3a 57 b9 3d e9 20 28 3d d4 05 b4 3d e7 c1 cc 3d
       0.0904984 0.04104701 0.08790174 0.099979214
000370 63 f7 d7 3d b3 3b e1 3d af 32 b9 3d 01 b2 81 3d
       0.10545232 0.10997715 0.0904287 0.0633278
000380 9c 9b b9 3d d5 dc 36 3c fc de 4a 3d 48 ed cb 3d
       0.09062883 0.011161049 0.04952906 0.09957367
000390 b7 04 15 bd 6b 7f e4 3d 0f 39 aa bd 15 9d 12 bd
       -0.03638145 0.111571155 -0.08311664 -0.035794336
0003a0 32 56 d4 bd b6 80 98 3a f4 1a c6 3d a5 3d 06 3e
       -0.10368003 0.0011635039 0.0967311 0.13109453
0003b0 91 2d 9c 3c 0d 7f 4a bd 65 93 92 bd 17 bd 0e 3d
       0.019064697 -0.04943757 -0.071570195 0.0348483
0003c0 ca 8a ed 3d 75 85 19 3d 93 22 f0 bd ef bc 20 bd
       0.115987375 0.03748079 -0.117253445 -0.03924268
0003d0 bc 60 8e 3d 3a f8 a2 bb 79 ef 92 bd 17 58 b7 3c
       0.06952044 -0.0049734386 -0.07174582 0.022380872
0003e0 28 1a 8a 3d 7e ca b4 3d b4 17 56 bd 4f 1e 96 bc
       0.0674327 0.08827685 -0.0522687 -0.018325
0003f0 ac 27 d7 3b a7 ec e3 3d 60 75 9a ba 7b 3d ed bc
       0.0065660086 0.11129122 -0.0011784248 -0.02895998

StatefulPartitionedCall/sequential/conv2d_3/BiasAdd_bias_fused_bn f4 [32]
000000 b6 61 4a 3d cd b3 2d bf fb fc 0f 40 ad 99 df 3e
       0.04940959 -0.6785248 2.2498157 0.43671933
000010 c5 ac 84 3e 14 d4 7f 3f 36 64 0f bf 04 6b 86 bf
       0.25913063 0.9993298 -0.56012285 -1.0501409
000020 71 bd 06 3e a9 a9 fc be fc ab 52 bd fb f3 57 bf
       0.13158204 -0.4934819 -0.05143355 -0.8435666
000030 3c 09 3d 3f 25 61 d9 bf 9f 6c 34 bf 25 d3 5d 3f
       0.73842216 -1.6982771 -0.7047824 0.86650306
000040 3e 9a 80 bf 72 47 7c 3f 73 63 da 3e f5 67 90 3f
       -1.0047071 0.98546517 0.42654 1.1281725
000050 03 e1 a3 bf d0 89 d6 3d 28 eb 88 3f 75 51 95 3e
       -1.2803043 0.104755044 1.0696764 0.2916371
000060 19 f6 42 be 59 63 44 bf a5 87 b1 be d3 e3 7c be
       -0.19039191 -0.7671409 -0.346738 -0.24696283
000070 25 1d 93 3f 33 31 a1 3e 79 88 bc 3f 44 4f 40 3e
       1.1493269 0.3148285 1.4729148 0.18780237

StatefulPartitionedCall/sequential/conv2d_2/BiasAdd_weights_fused_bn f4 [16, 32, 3, 3]
000000 9e f1 52 3d e4 c4 54 3d a6 f2 4f 3d 6f c5 9a bd
       0.051499955 0.051945582 0.050768517 -0.07557189
000010 4a c9 c1 bd a3 48 95 3d e0 43 70 bd de ab b7 bd
       -0.09462221 0.07289245 -0.05865848 -0.08968328
000020 f8 ed f2 bd f8 ed 69 3d c5 b5 87 3d ef 91 ba bb
       -0.11861795 0.05711171 0.06626467 -0.005693666
000030 0c e4 85 bd 5c 45 c4 3d 9f 95 b3 3d 3d 5e 70 bd
       -0.06537637 0.09583542 0.08768772 -0.058683623
000040 14 ca 24 3c 4f 2d 8d bc 75 39 00 3d 5a 58 38 3d
       0.010057945 -0.017233519 0.031304795 0.045006134
000050 fc 29 34 3d 95 87 60 3c e3 ce 24 bd 12 8c 5c 3b
       0.043985352 0.0137042 -0.040236365 0.0033652824
000060 15 a9 9d bc 03 1b 7d 3d 47 61 8e 3c b3 8b 4c bd
       -0.019245664 0.06179334 0.01738037 -0.049937915
000070 39 c4 8d bc 1e 94 99 bd 6f 0a e2 3c bd 57 22 bd
       -0.01730548 -0.07498954 0.027592866 -0.039634455
000080 45 d3 f2 bc 2e 6e d9 bd 08 df cd bd de d9 df bc
       -0.029641757 -0.10616718 -0.100523055 -0.027325567
000090 07 88 2a bd 19 a3 20 bc 9c 61 38 bd 1a 53 6f bd
       -0.041633632 -0.0098045105 -0.045014963 -0.05842886
0000a0 09 0a 91 ba 8d c6 7e bc a5 2d cf bc db 61 86 3d
       -0.0011065613 -0.015550268 -0.02529032 0.06561633
0000b0 d3 3f 4c 3d ea de c8 bb 81 95 ce bc a5 12 a1 bd
       0.049865555 -0.006130089 -0.025217773 -0.07864884
0000c0 a9 5f 4e bb ec 83 4b 3d e7 ef a9 bd 10 c3 78 bd
       -0.0031490123 0.049686357 -0.08297711 -0.0607329
0000d0 4f 8a 1c 3d 06 b7 04 3c 08 00 40 3b d6 59 e2 bd
       0.03821784 0.008100277 0.0029296894 -0.11052291
0000e0 5f db ab bc 28 e6 db 3c 59 91 ab bd 83 c1 c6 3b
       -0.020978628 0.026843145 -0.08377332 0.006065549
0000f0 c0 2b 8a 3d 40 fb 4e 3d 97 c6 8b bd 84 80 8b 3d
       0.06746626 0.05053258 -0.068249874 0.06811622
000100 11 05 95 3d cf 02 44 bc 0a b1 b5 3c 0f 0b 92 3c
       0.07276357 -0.01196356 0.022179145 0.017827539
000110 85 40 bf bd 0a b5 4b 3d 53 93 c5 bd c8 f7 2d bd
       -0.09338478 0.0497332 -0.096472405 -0.04247263
000120 d8 59 df 3c 1c e1 9f 3d 5f 3a 88 bd 1c 53 f4 3c
       0.02726452 0.07806608 -0.066517584 0.029824786
000130 6e 6b be bd c6 d5 f9 3c da 1e 60 bd 17 c5 0e bd
       -0.09297834 0.030497443 -0.054716922 -0.03485593
000140 88 6d 6c bd 58 eb 9e 3d 62 25 be bd 25 5d 84 3d
       -0.057721645 0.07759732 -0.09284474 0.064630784
000150 33 99 a8 3d ab 59 d5 3c f2 aa 99 3d 9b 5a 34 3d
       0.082323454 0.026043734 0.07503308 0.04403172
000160 06 00 df 3c 94 ae d8 3c 77 f5 83 3d 06 2b c9 3d
       0.02722169 0.026450433 0.06443303 0.09822659
000170 c2 6b 9b 3d 4c 3e 06 bd 04 82 ac bd d2 dc 89 bd
       0.075889125 -0.032774255 -0.08423236 -0.06731571
000180 4f 01 af 3d 3b 28 aa bc c6 1a e7 bd 3b bd b2 bd
       0.085451715 -0.020771137 -0.112844035 -0.08727499
000190 f7 d9 03 bd 08 e7 44 bd 55 1b 92 bd 27 21 86 3d
       -0.03219029 -0.04807189 -0.071341194 0.06549292
0001a0 07 dd 8e 3d 9e 33 8f 3d 2e 56 04 3b 9d 5e 9b 3d
       0.06975751 0.06992267 0.0020192969 0.075864054
0001b0 e9 95 a4 3d 5b 24 a0 3d e0 cd a6 3a 0f 09 b2 bd
       0.080364056 0.07819434 0.001272615 -0.08693134
0001c0 3a 27 da 3a 1f 51 2f bc 4b ff dd 3d 21 88 92 3d
       0.001664377 -0.010700493 0.10839709 0.07154871
0001d0 09 1e 26 bc d6 ee 12 3d 08 3c ef 3c a8 d6 8b 3d
       -0.010138997 0.035872303 0.02920343 0.06828052
0001e0 f1 a8 05 3d f2 62 df bd 45 a9 84 3d 20 77 aa 3d
       0.03263182 -0.10907544 0.06477598 0.083235025
0001f0 2e b9 65 3c 26 1e b1 bd 5b 5c 69 3c 37 5a da 3c
       0.014021201 -0.086483285 0.014243211 0.026654346
000200 4c 10 13 bd 6e 87 94 3d a7 05 e2 bc 59 7b 94 bd
       -0.035904214 0.07252394 -0.027590586 -0.07250089
000210 b8 bd a5 3d be ba 8d 3d b6 f6 bb bb 24 9c ad 3d
       0.080928266 0.06920384 -0.0057361973 0.08477047
000220 80 1a 45 bd fa 13 b1 3c d0 ea 6c 3d 85 24 a6 bd
       -0.048120975 0.02161597 0.057841122 -0.08112434
000230 e8 25 8d bd f2 1f 42 bd da 2e 0a 3c f6 ba 24 3c
       -0.06891996 -0.047393747 0.008434022 0.010054341
000240 4c f9 d2 bd 6f ec 8a 3d 83 79 13 3d 08 72 9f bd
       -0.10301456 0.067833774 0.036004554 -0.077854216
000250 b8 f3 10 3d 42 1b 8c 3d 5b 1d f1 bc d6 98 c5 ba
       0.03538868 0.068411365 -0.029432943 -0.0015075456
000260 16 ed a3 3c 98 f7 a5 3d e5 e1 c1 bd 29 2b 29 bd
       0.020010512 0.081038654 -0.09466914 -0.041300926
000270 08 21 b8 3d 28 2e 71 3c da b2 05 3c 1a 48 3a bd
       0.08990675 0.014720477 0.008160317 -0.045478918
000280 af 80 13 bc b1 18 bd bd 7a 82 94 bd 43 46 d1 3c
       -0.0090028485 -0.09233225 -0.07251449 0.025546199
000290 fd 84 b6 bd df bd 61 bd ee 85 b0 bb 06 cb 5b bd
       -0.08912084 -0.055112716 -0.0053870594 -0.053660415
0002a0 6a 16 85 bd 43 cf 8f bc 5d 38 85 bc ec 1c c5 3d
       -0.06498416 -0.017554885 -0.016262228 0.09624657
0002b0 e0 25 8b bd 6e ef c8 bd aa eb 9b 3d a7 30 21 3d
       -0.067943335 -0.098112926 0.07613309 0.03935304
0002c0 73 fd f4 3b d6 41 5b bd 26 98 9f 3d 7e da a9 3d
       0.0074765026 -0.053529583 0.07792692 0.08293627
0002d0 42 c3 e0 3c 22 fb c7 bd 84 80 ca bb 73 56 ad 3d
       0.027436856 -0.09764697 -0.006179871 0.084637545
0002e0 3f 8c 1d bd 6f 16 b1 bd f3 09 bc 3d 24 4c 7d bd
       -0.038463827 -0.08646857 0.09181585 -0.06184019
0002f0 2e 9b cf 3d a2 df e4 bc 3b 66 9f 3d 3a ae eb bb
       0.1013702 -0.027938668 0.07783171 -0.0071924003
000300 65 26 66 bd 34 ce ae 3d 64 f5 98 bd 21 b4 a5 3d
       -0.05618896 0.08535424 -0.074686795 0.080909975
000310 86 b7 96 3d af 69 b2 bd 3e cb 74 3c f6 7b 48 bc
       0.07359223 -0.08711564 0.014941035 -0.012236586
000320 dc 7f a7 3d ec b6 b3 bc 67 94 3b 3d 79 e3 92 3d
       0.08178684 -0.02193781 0.045795824 0.07172293
000330 18 e1 63 bd 8a 21 8a bd 46 9c b5 3d b5 40 bc bd
       -0.055634588 -0.06744678 0.088676974 -0.091920294
000340 b7 6b 77 bd c2 54 17 bd 77 89 c2 3d 13 db 9c bb
       -0.06040546 -0.036946066 0.094988756 -0.004786858
000350 9c 86 c5 3d da bc a2 3d 04 54 48 bd e7 b6 86 bd
       0.09644815 0.07946177 -0.04890825 -0.065778546
000360 cf b2 a3 bd 69 cb 71 3d 3d 7f 4b 3d 43 1a f8 3b
       -0.079930894 0.059031878 0.04968189 0.00757149
000370 e3 f8 d3 3d 1c 0a 65 ba 1d 77 c0 bd d3 a7 52 bc
       0.10350206 -0.0008737163 -0.09397719 -0.012857395
000380 55 59 c5 bd 71 89 82 bd eb 4e fd b8 14 2c 78 bd
       -0.09636179 -0.06373871 -0.0001207868 -0.06058891
000390 1f 93 5f bc 5f 74 65 3d b1 87 bc 3c 33 44 f3 3c
       -0.013645916 0.056019183 0.023013921 0.029695606
0003a0 5f 38 b6 3b 23 9f 5e 3c f5 da 9b bd e2 22 c6 bc
       0.005560919 0.013587746 -0.07610122 -0.024186555
0003b0 af b9 da bd d4 93 70 bd aa 2f 96 bc 40 12 b9 3c
       -0.106799476 -0.05873473 -0.018333275 0.02259171
0003c0 b7 ad 44 3d 2b 08 db 3a 31 41 b5 bd 7e 72 b0 bd
       0.04801723 0.0016710808 -0.08850325 -0.08615588
0003d0 d2 18 79 3d 42 07 a1 bd c3 9d 5a bd b0 a7 86 bd
       0.060814686 -0.078627124 -0.05337311 -0.065749526
0003e0 61 4e b4 3c be ee 74 3d 4b 49 72 bd 85 9d de bd
       0.02201003 0.059797995 -0.05915193 -0.10869888
0003f0 f8 38 d0 3d f4 c8 cb bd 93 3d fd 3c e4 7a 42 bd
       0.10167116 -0.09950438 0.03091315 -0.04748048

StatefulPartitionedCall/sequential/conv2d_2/BiasAdd_bias_fused_bn f4 [16]
000000 90 78 59 3e e0 66 3f 3e 14 e4 e0 be cb ba 02 3e
       0.21237397 0.18691587 -0.4392401 0.12766568
000010 4d f2 eb bf ee 13 26 be 9c 84 84 be b3 bf 0b bf
       -1.8433319 -0.1621854 -0.25882423 -0.54589385
000020 ba 98 46 bf 10 79 b2 be 6e 76 51 3d aa 0e 88 bf
       -0.7757679 -0.34857988 0.051138334 -1.0629475
000030 8d 3c 27 be fd 13 3b be c9 1f 93 3d 70 02 53 bf
       -0.16331692 -0.18269344 0.07183797 -0.82425594
