model.onnx (onnx, 675124 bytes, 13 tensors)

StatefulPartitionedCall/sequential/dense_1/MatMul/ReadVariableOp:0 f4 [256, 1]
0	0xbdc51ab9	-0.096242376
1	0x3d2d92c6	0.042376302
2	0x3c98b5bd	0.018641347
3	0x3cd01188	0.025398985
4	0xbe1db804	-0.15402228
5	0xbcf07365	-0.0293519
6	0x3da51fdf	0.080627196
7	0x3d6aa88c	0.057289645
8	0x3d52b85b	0.051445346
9	0x3e238b49	0.15971102
10	0xbd31f209	-0.043443713
11	0x3d8b8d03	0.06814005
12	0x3ca45cce	0.020063784
13	0xbc0b3417	-0.008496306
14	0x3cf53f5f	0.029937444
15	0xbe221a7c	-0.15830415
16	0xbd27947a	-0.040913083
17	0x3e26b8d6	0.16281447
18	0x3e18c704	0.14919668
19	0xbc009ee6	-0.007850384
20	0xbe0b55b2	-0.13606909
21	0xbddc5b65	-0.107596196
22	0x3dbda840	0.09260607
23	0x3e16f106	0.1474038
24	0xbbb96fb9	-0.0056590703
25	0xbdc5c2c0	-0.09656286
26	0x3dd0147a	0.101601556
27	0xbe020e90	-0.12700868
28	0x3d1bb595	0.038014967
29	0xbe146d08	-0.14494717
30	0xbe296d66	-0.16545638
31	0xbd28dd38	-0.041226596
32	0x3d0b4330	0.033999622
33	0xbd30e92a	-0.043191113
34	0x3d85fec1	0.06542731
35	0x3df7b80e	0.120956525
36	0x3d0ae2d2	0.03390772
37	0xbd1f8d3d	-0.038953055
38	0x3dd250cc	0.10269317
39	0x3e01ef7c	0.12689012
40	0x3bc35587	0.0059611234
41	0x3d90e0e4	0.070741445
42	0x3d98f5f6	0.07468788
43	0x3d54d422	0.051960118
44	0x3d96c8ba	0.07362504
45	0xbdcbf120	-0.099581
46	0x3d5171ad	0.0511338
47	0xbbecb286	-0.00722343
48	0x3d8a8447	0.06763511
49	0xbda567e6	-0.08076458
50	0xbc751454	-0.01495846
51	0xbc88aa17	-0.016682668
52	0xbb32838a	-0.0027239048
53	0xbd2c045b	-0.04199634
54	0xbdff5d06	-0.12468915
55	0x3db438ad	0.087998725
56	0x3e182b5d	0.14860292
57	0x3d57fe77	0.05273291
58	0xbe39e2a5	-0.18152864
59	0xbd3b38a8	-0.04570833
60	0xbda8ee20	-0.08248544
61	0x3d04addf	0.03239238
62	0xbdbe6e74	-0.09298411
63	0xbdbeec81	-0.09322453
64	0xba02479f	-0.0004969779
65	0x3d52d9cc	0.05147724
66	0x3ccfe2a6	0.02537663
67	0xbe032ad1	-0.12809302
68	0x3dca4748	0.09876877
69	0x3cbbaf0e	0.022910621
70	0xbde855fa	-0.11344524
71	0x3da6b4bc	0.08139941
72	0x3e0d27cb	0.13784711
73	0xbe422693	-0.18960027
74	0x3d081d80	0.03323126
75	0x3d03152d	0.032002617
76	0x3e156d48	0.14592469
77	0xbddf9c19	-0.10918445
78	0x3e4a2525	0.19740732
79	0xbdd2f727	-0.10301047
80	0x3d22799f	0.03966677
81	0xbdb7a7aa	-0.08967526
82	0xbe05d60b	-0.13069932
83	0x3aaa61ed	0.0012999155
84	0x3dbefeff	0.093259804
85	0xbdc6ba33	-0.097034834
86	0x3df4709f	0.11935543
87	0x3c86cf50	0.016456276
88	0xbe105cf7	-0.14097963
89	0x3e13e6cc	0.14443511
90	0x3ca1bbdf	0.019742904
91	0x3cde580f	0.027141599
92	0xbce31492	-0.02771977
93	0xbdcd502e	-0.10025059
94	0xbde0f883	-0.109849
95	0x3dedbb8a	0.11608036
96	0x3e31580d	0.17318745
97	0x3d819cdf	0.06328749
98	0x3cb9cc96	0.022680562
99	0xbceb3074	-0.028709628
100	0x3dbad3ae	0.09122406
101	0x3e1f78ec	0.15573472
102	0xbbb695b8	-0.005572047
103	0xbde6fc5b	-0.11278602
104	0xbda0b8bb	-0.078477345
105	0x3d50b19b	0.050950628
106	0x3d3c704b	0.04600553
107	0xbc9fff88	-0.019531026
108	0x3de24356	0.110479996
109	0xbb4030a1	-0.002932586
110	0x3e0c4a68	0.13700259
111	0x3c84342f	0.016138164
112	0x3c40f451	0.011777
113	0x3e18b9c9	0.14914621
114	0x3d315517	0.04329404
115	0x3da5dd6e	0.08098875
116	0x3e3476f2	0.17623499
117	0x3e1d79b9	0.15378465
118	0x3e1483a8	0.14503348
119	0x3d2653a8	0.040607125
120	0x3dd03688	0.10166651
121	0x3ceee87a	0.029163588
122	0x3d8123a2	0.063056245
123	0xbdf02c2b	-0.11727174
124	0xbdc9cf73	-0.09854021
125	0xbde1d2b5	-0.11026517
126	0xbb10bb5e	-0.0022084336
127	0xbe2f0d2b	-0.17094867
128	0xbdbee6fa	-0.09321399
129	0xbdd3ac60	-0.10335612
130	0x3e1d9864	0.15390164
131	0xbcaae754	-0.020862259
132	0xbddd15d8	-0.10795182
133	0xbd7c0fb2	-0.061538406
134	0x3ca9ed8b	0.020743152
135	0xbe0970eb	-0.13421981
136	0x3dfa96d0	0.122357965
137	0x3d8c47c0	0.06849623
138	0x3d433e20	0.04766667
139	0x3e0bc53d	0.13649459
140	0xbe0d8918	-0.13821828
141	0x3cc46fd0	0.023979098
142	0x3dbaf022	0.09127833
143	0xbe1eaf2d	-0.15496512
144	0xbde6750b	-0.11252793
145	0x3e1320ad	0.14367934
146	0x3bf77f58	0.0075530224
147	0x3831ca8d	4.238873e-05
148	0x3e123aa3	0.1428018
149	0x3e00c4ea	0.12575117
150	0x3e0cd7d3	0.13754205
151	0x3e1a3fd9	0.15063418
152	0xbdc11f7b	-0.094298325
153	0x3dddd647	0.10831886
154	0xbd46e565	-0.04855861
155	0xbcec1ae5	-0.028821418
156	0x3d31147f	0.043232437
157	0x3d810f5e	0.06301759
158	0x3e4bbc9a	0.19896165
159	0x3e308398	0.17237699
160	0x3dd62669	0.10456545
161	0xbdecd81d	-0.11564658
162	0x3c8dbb5f	0.01730126
163	0x3d33e038	0.043915004
164	0x3d9948c4	0.07484582
165	0x3d986062	0.074402586
166	0x3da7a689	0.08186061
167	0xbda01a22	-0.078174844
168	0xbc98afb7	-0.018638475
169	0xbe0563b8	-0.13026321
170	0xbc8f1edb	-0.017470768
171	0xbe00d67a	-0.12581816
172	0x3d457102	0.048203476
173	0x3d0491cf	0.032365616
174	0x3db71f95	0.08941571
175	0xbd6bf25d	-0.057604183
176	0xbe1713a2	-0.14753583
177	0x3df04669	0.1173218
178	0xbe1643fa	-0.14674369
179	0xbd9fc299	-0.078007884
180	0xbc544c5a	-0.012957657
181	0x3e240fcb	0.1602165
182	0x3da593e4	0.080848485
183	0x3cd74526	0.02627809
184	0xbda0c8d7	-0.07850807
185	0xbdbbd619	-0.09171695
186	0xba25214c	-0.0006299212
187	0xbe2d6d73	-0.16936283
188	0x3d90edc4	0.070766
189	0x3d3508fc	0.04419802
190	0xbdba42f3	-0.09094801
191	0x3d4f17ff	0.050559994
192	0xbe27e114	-0.16394454
193	0x3def2dff	0.11678695
194	0x3e29b1e5	0.16571768
195	0x3da7ecc5	0.08199457
196	0xbcfad4f1	-0.030619117
197	0xbdbbf566	-0.091776654
198	0xbdb63181	-0.08896161
199	0xbd5dc7e1	-0.054145698
200	0x3cb0e279	0.021592366
201	0x3dd898ae	0.10575996
202	0xbe06df0b	-0.13171022
203	0xbdb551c5	-0.08853487
204	0xbd872dfb	-0.06600567
205	0x3d72140b	0.059101146
206	0x3d09ec11	0.033672396
207	0xbd8818b8	-0.0664534
208	0xbcfe3d44	-0.031035073
209	0x3d7d63be	0.0618627
210	0x3cba8e3f	0.022772906
211	0xbdf417f7	-0.119186334
212	0xbb9f777b	-0.004866538
213	0xbda98508	-0.08277327
214	0xbcf66659	-0.0300781
215	0xbe10f076	-0.14154229
216	0x3b909789	0.0044125956
217	0xbd3edf46	-0.04659965
218	0x3cbd1cf2	0.023085091
219	0xbd05090e	-0.03247934
220	0x3dcda380	0.10040951
221	0xbe04f507	-0.12984096
222	0x3c6821bc	0.014168199
223	0xbc96d4a7	-0.018411947
224	0xbdf4ed74	-0.11959353
225	0xbb374efc	-0.0027970662
226	0xb895052e	-7.1058384e-05
227	0x3c4bc27e	0.012436507
228	0xbd7ef388	-0.06224397
229	0x3c9dd280	0.019265413
230	0x3d44503f	0.04792809
231	0xbd536ef8	-0.0516195
232	0xbcaab07d	-0.02083611
233	0x3d334669	0.04376832
234	0x3dec9f99	0.11553878
235	0x3cf988e7	0.030460788
236	0x3d8bda24	0.068287164
237	0x3cc88637	0.024478061
238	0xbd8f1f72	-0.069884196
239	0x3cc19c20	0.023634017
240	0xbdd24fda	-0.10269137
241	0xbc064c44	-0.008196894
242	0xbc917d75	-0.017760018
243	0x3de4e934	0.111772925
244	0xbbad5c90	-0.0052905753
245	0x3e244c92	0.16044834
246	0xbe0aac69	-0.13542332
247	0xbe0f8617	-0.14015995
248	0x3e3ab02d	0.18231268
249	0xbdf2c219	-0.118534274
250	0x3cb207ac	0.021732174
251	0x3ddc8e73	0.107693575
252	0x3d922cc7	0.07137447
253	0x3da36d50	0.07979834
254	0xbe1483d7	-0.14503418
255	0xbce76088	-0.028244272

StatefulPartitionedCall/sequential/dense/MatMul/ReadVariableOp:0 f4 [576, 256]
0	0xbc672d8c	-0.01410998
1	0xbb701349	-0.0036632589
2	0xbc456080	-0.012046933
3	0x3d40e229	0.047090683
4	0x3cb20706	0.021731865
5	0xbc404a62	-0.011736484
6	0x3c84638e	0.016160753
7	0xbdc07d5d	-0.09398911
8	0x3b79806c	0.003807093
9	0xbdcb72a7	-0.099339776
10	0x3ca7f4e2	0.020502511
11	0xbd3bac37	-0.045818534
12	0x3d856d0f	0.06514942
13	0xbc6b2d62	-0.014354082
14	0x3cae845c	0.021303348
15	0xbbf019ef	-0.0073273103
16	0xbcd06dda	-0.025443006
17	0x3d811ffb	0.06304928
18	0xbd443c66	-0.047909163
19	0xbd033e1f	-0.032041665
20	0x3d46d39b	0.048541646
21	0x3d349dd2	0.04409582
22	0xbc890f59	-0.016730951
23	0x3d54d40e	0.051960044
24	0xbc553de5	-0.013015245
25	0xbd513a5d	-0.05108105
26	0xbcc6eb71	-0.02428219
27	0x3d464d87	0.04841378
28	0xbcda2a77	-0.026631577
29	0x3d1b7e6d	0.037962366
30	0xbd612348	-0.054965287
31	0x3d258d34	0.040417865
32	0xbdc13aad	-0.0943502
33	0x3ba346d2	0.0049828077
34	0x3d558b1a	0.05213461
35	0x3ce832ec	0.028344594
36	0x3c8aa049	0.016922133
37	0xbcf2ae15	-0.029624024
38	0xbccce16e	-0.025009837
39	0xbdd23411	-0.10263837
40	0x3d4f5277	0.050615754
41	0x3cc51d4f	0.024061827
42	0xba17a379	-0.0005784552
43	0xbcb4189e	-0.021984395
44	0x3cc2834f	0.023744253
45	0xbda0ddc5	-0.07854799
46	0x3d428f4d	0.047499944
47	0x3a5ea6e5	0.0008493497
48	0xbce652e7	-0.028115703
49	0x3d8b2818	0.06794757
50	0x3d07f49a	0.033192255
51	0xbd4b5813	-0.04964454
52	0xbd810447	-0.06299644
53	0x3d38d9d3	0.04512961
54	0x3d1194e7	0.035542395
55	0xbde3b631	-0.11118735
56	0x3c9ed4b0	0.019388527
57	0xbd235846	-0.039879106
58	0x3c7ac5b4	0.015305925
59	0x3d801096	0.062531635
60	0xbd4edd32	-0.050503917
61	0xbd4fd909	-0.05074409
62	0x3d1eddf7	0.0387859
63	0x3d7fa0c6	0.062409185
64	0xbd0b749c	-0.034046754
65	0xbdc2bc32	-0.09508552
66	0x3d48d487	0.049030807
67	0x3d310b28	0.04322353
68	0x3d8ae55d	0.06782029
69	0x3ce8ae42	0.028403405
70	0xbd5b61e5	-0.053560156
71	0x3d6131e2	0.054979213
72	0xbdb9c29e	-0.090703234
73	0x3c890d11	0.016729863
74	0xbcc7a333	-0.024369812
75	0xbd420ce8	-0.04737559
76	0x3c7c48b3	0.015398192
77	0x3c22871b	0.009919907
78	0xbc251967	-0.010076857
79	0x3d8eec19	0.06978626
80	0xbda9eef7	-0.08297532
81	0x3d8fece0	0.07027602
82	0xbd9283bd	-0.07154033
83	0xbd08e098	-0.033417314
84	0x3ca148e3	0.019688075
85	0x3deb4b81	0.114890106
86	0x3d6738eb	0.056450766
87	0xbbcc3afa	-0.0062326165
88	0x3b960585	0.0045782947
89	0xbd2ef3ac	-0.042712852
90	0xbdcdd22e	-0.10049854
91	0x3cf54ac2	0.029942874
92	0xbdb34cba	-0.08754869
93	0xbc925259	-0.017861532
94	0xbd98733c	-0.07443854
95	0xbca81a7d	-0.020520443
96	0x3d37f432	0.044910617
97	0xbd9f55e9	-0.07780058
98	0x3c9bfe33	0.01904211
99	0xbd674a3e	-0.056467287
100	0xbd8d2555	-0.06891886
101	0xbb58f442	-0.0033104573
102	0xbdc1a744	-0.094557315
103	0x3ca15425	0.019693444
104	0x3c664041	0.014053405
105	0xbd930e2d	-0.07180438
106	0xbaa5c6c0	-0.0012647733
107	0xbcd7c3d3	-0.026338493
108	0x3d3d18cf	0.046166237
109	0x3caf1461	0.021372022
110	0xbde36aa8	-0.111043274
111	0xbdba4674	-0.09095469
112	0xbc42f06e	-0.011898143
113	0xbdc9806c	-0.09838948
114	0x3c3f7cf8	0.01168751
115	0xbd4bfaff	-0.049799915
116	0xbd65d04f	-0.05610686
117	0x3d05ae1c	0.032636747
118	0x3d2a8d8a	0.04163889
119	0xbb58e47a	-0.0033095167
120	0xbcd7c8b5	-0.026340822
121	0xbd1cc5f4	-0.03827472
122	0xbbdd865e	-0.0067604026
123	0x3c288a3d	0.010286865
124	0x3ca2a467	0.019853784
125	0x3c7ea13f	0.015541374
126	0xbd8e9de7	-0.06963711
127	0x3d8cd97b	0.068774186
128	0xbd90ba6e	-0.07066809
129	0xbda6230b	-0.08112153
130	0xbdbb99bd	-0.091601826
131	0x3db794ff	0.089639656
132	0xbcd836ac	-0.026393257
133	0xbd951db5	-0.07281057
134	0x3d1697ba	0.03676579
135	0x3d81dce6	0.06340961
136	0xbdbad3a6	-0.091224
137	0x3d4641ad	0.048402477
138	0xbda880bc	-0.08227679
139	0x3caab434	0.02083788
140	0x3a187b8b	0.0005816749
141	0xbd44fa67	-0.048090365
142	0xb7a4a847	-1.9628684e-05
143	0x3d780f0e	0.060561232
144	0xbd727349	-0.059191976
145	0xbc0d9c70	-0.008643255
146	0x3c90233e	0.01759493
147	0xbd9daf50	-0.07699454
148	0xbd4651c0	-0.048417807
149	0x3d87d670	0.066326976
150	0x3c02c99d	0.007982639
151	0x3c9e8c97	0.019354148
152	0x3dcfd818	0.101486385
153	0xbc214235	-0.009842445
154	0x3a54c99f	0.0008117202
155	0x3c933350	0.017968804
156	0x3d305d86	0.04305794
157	0xbd8b5b55	-0.068045296
158	0x3ab0bd04	0.0013484065
159	0x3d0987b4	0.033576682
160	0xbdb76a82	-0.08955862
161	0xbd9e1a58	-0.077198684
162	0x3a530699	0.00080499944
163	0xbda6c339	-0.081427045
164	0xbdcb82d2	-0.09937061
165	0xbd817f81	-0.063231476
166	0x3cb0d1f2	0.021584485
167	0xbbda2219	-0.006656897
168	0x3d1809fd	0.0371189
169	0xbbc97375	-0.0061477968
170	0x3d85ec93	0.065392636
171	0x3d553b0d	0.05205827
172	0x3cf04245	0.029328475
173	0x3d861eee	0.06548868
174	0xbd1c040d	-0.0380898
175	0x3d7a74c3	0.06114651
176	0xbc711e6b	-0.014716725
177	0xbda78ef5	-0.08181564
178	0x3b82fe45	0.0039975964
179	0x3db7b2f7	0.08969682
180	0x3d831dd5	0.064021744
181	0xbcb46b8f	-0.022023944
182	0xbdd8593d	-0.10563896
183	0x3b3f8f55	0.002922972
184	0xbc83a0cb	-0.016067883
185	0xbd46ba7a	-0.04851768
186	0x39dd09b0	0.00042159623
187	0xbcc594ef	-0.024118869
188	0xbdc16e4a	-0.09444864
189	0xbdba25ca	-0.09089239
190	0xbcc4e420	-0.02403456
191	0x3c988a57	0.018620653
192	0x3d3c3840	0.04595208
193	0xbd6ad791	-0.057334486
194	0x3c1ff954	0.009764034
195	0x3d20513d	0.039139975
196	0xbdb1f62f	-0.08689534
197	0xbda3018f	-0.07959282
198	0xbd76e787	-0.060279395
199	0xbdb5b89f	-0.08873104
200	0xbd205467	-0.039142992
201	0x3d93ff21	0.07226396
202	0x3bf5b832	0.0074987644
203	0x3d4c60e6	0.049897097
204	0xbcc33d6c	-0.023833
205	0xbdcb97f5	-0.09941093
206	0xbd2917d9	-0.04128251
207	0x3c9f4d17	0.019445939
208	0x3dc2bcad	0.09508643
209	0x3c529cf2	0.0128548015
210	0xbc56faa8	-0.013121285
211	0xbcdb48ff	-0.026768206
212	0x3d81a493	0.06330218
213	0x3bd02018	0.006351482
214	0xbc9ba995	-0.019001761
215	0x3dd6eef0	0.104947925
216	0x3d15f674	0.03661199
217	0x3d60daab	0.054896038
218	0x3d883a75	0.06651775
219	0x3cffec03	0.031240469
220	0xbcc11cbb	-0.02357327
221	0x3c222aff	0.009897946
222	0x3d8a1199	0.06741638
223	0x3d2c617a	0.04208515
224	0x3d2d6699	0.042334173
225	0x3bcc7472	0.0062394673
226	0xbcdd9cc7	-0.027052296
227	0xbd81d7cb	-0.06339987
228	0x3da5088c	0.08058271
229	0x3cdf58f5	0.027264098
230	0xbc1df688	-0.009641297
231	0x3dd01b2c	0.101614326
232	0x3d889852	0.06669678
233	0xbd45be2c	-0.048277065
234	0x3d8f2bfb	0.069908105
235	0x3d9101fa	0.07080455
236	0x3d76364c	0.060110375
237	0x3d57e5c9	0.052709375
238	0xbc84f4ff	-0.016230104
239	0xbc4dbdcc	-0.012557458
240	0x3ce9e763	0.028552717
241	0xbcb615b3	-0.022227144
242	0xbd164076	-0.03668257
243	0xbbc9701d	-0.006147398
244	0xbda959e2	-0.08269097
245	0x3d88f6be	0.06687687
246	0x3da27625	0.079326905
247	0xbccf62b4	-0.02531562
248	0xbcc81a7e	-0.024426695
249	0x3cd4b261	0.025963964
250	0xbc5717d5	-0.013128241
251	0xbd3227af	-0.043494876
252	0x3cf0611f	0.029343186
253	0xbda1775f	-0.07884096
254	0x3cb6d0b6	0.022316318
255	0x3cdf4239	0.027253257

StatefulPartitionedCall/sequential/dense/BiasAdd/ReadVariableOp:0 f4 [256]
0	0xbd08b559	-0.03337607
1	0x3caaa44a	0.020830292
2	0xbad41de3	-0.0016183223
3	0x3c51552c	0.012776654
4	0xbc9d2b97	-0.019185824
5	0xbbd12c35	-0.0063834437
6	0x3bb7e684	0.0056121964
7	0x3c967093	0.018364226
8	0xbcd6bfa0	-0.02621442
9	0x3c985b7b	0.018598309
10	0xbc267390	-0.010159388
11	0x3c515f7c	0.012779113
12	0xbc8ac200	-0.01693821
13	0xbc41780c	-0.011808407
14	0xbc600c9c	-0.013674881
15	0xbcad63a9	-0.021165686
16	0xbc65ce71	-0.01402627
17	0x3d089b8b	0.033351462
18	0x3bac210f	0.0052529643
19	0xbcb6fd5d	-0.02233761
20	0xbd170386	-0.036868595
21	0xbbbacfcf	-0.0057010422
22	0x3c56bbac	0.013106268
23	0x3cc3193d	0.023815745
24	0xbc6ef38b	-0.014584432
25	0xbc21cb44	-0.009875122
26	0xbc0199ef	-0.007910236
27	0xb97b0ae4	-0.00023941282
28	0x3c051ce7	0.008124567
29	0xbc8e5b46	-0.017377507
30	0xbc8290fb	-0.015938273
31	0x37f5fd2f	2.9324174e-05
32	0x3b6a6ae0	0.003576927
33	0x3a3d1eb2	0.0007214352
34	0x3cddf7a1	0.027095618
35	0xbc8b6183	-0.01701427
36	0xbba35226	-0.004984158
37	0xbcc4b995	-0.024014274
38	0x3b8f5dd1	0.0043751975
39	0x3c7c5bdd	0.015402761
40	0xbd33986c	-0.043846533
41	0x3c93fd91	0.018065246
42	0x3c3b698b	0.011438738
43	0x3c8e5f85	0.017379532
44	0xbc87dc28	-0.01658447
45	0xbcd3c9b6	-0.02585302
46	0x3b67c2fa	0.0035364018
47	0xbcb6ab45	-0.022298465
48	0x3cae1660	0.021250904
49	0xbb07d5dc	-0.0020726835
50	0xbcc6f822	-0.02428824
51	0xbcdaeb00	-0.026723385
52	0xbc19afed	-0.009380323
53	0xbc725a93	-0.014792102
54	0xbb987db2	-0.004653656
55	0xbb843ab2	-0.0040353173
56	0x3c5ab2f6	0.013348332
57	0xbc81154f	-0.015757231
58	0x3bd592aa	0.006517728
59	0xbcf30317	-0.02966456
60	0xbc5ac4bb	-0.013352568
61	0xbc743538	-0.014905266
62	0xbc669ec7	-0.014075941
63	0xbaab38bb	-0.0013063172
64	0xbcb1a425	-0.021684716
65	0xbc15943f	-0.009129583
66	0xbc66e0c8	-0.014091678
67	0xbb353173	-0.0027647882
68	0x3c0e66c7	0.008691496
69	0x3c7863ea	0.01516054
70	0x3aeb807b	0.0017967367
71	0x3cdaf36d	0.026727403
72	0x3ca47ce8	0.020079091
73	0xbb54379e	-0.0032381783
74	0xbd16c2e5	-0.03680696
75	0x3c954efc	0.01822614
76	0x3be2c054	0.0069199
77	0xbbc8572d	-0.006113908
78	0xbba671b0	-0.0050794706
79	0xba95aa70	-0.0011418592
80	0x3c5a11e3	0.013309929
81	0xbce890fa	-0.028389443
82	0xbc7e180f	-0.015508666
83	0xbb90bb94	-0.0044168923
84	0x3b73d874	0.0037207874
85	0xbadbfe16	-0.0016784098
86	0x38a81214	8.0142316e-05
87	0xbc225931	-0.00990896
88	0xbb19f9ce	-0.0023494842
89	0x3c3b26ae	0.011422796
90	0x3b28a72d	0.002573441
91	0x3c003142	0.007824244
92	0xbafe265b	-0.0019390093
93	0xbbeada80	-0.0071671605
94	0xbc9c2956	-0.01906268
95	0x3b3818bd	0.0028090917
96	0x3cdf1e2a	0.027236063
97	0x3c9c5984	0.019085653
98	0x3c5bab32	0.013407515
99	0xbc204f25	-0.0097844945
100	0xbba9fa56	-0.005187313
101	0x3c60d47c	0.013722535
102	0xbc9ab570	-0.018885344
103	0xbc7e397a	-0.015516633
104	0xbc966f99	-0.01836376
105	0xbc1a9942	-0.009435954
106	0x3c1cff8c	0.0095824115
107	0xbcb70465	-0.022340963
108	0xbbfbb02f	-0.007680915
109	0xbc626ca5	-0.013819848
110	0x3c8d5de9	0.017256694
111	0x3be7538f	0.0070595215
112	0x3aebd56a	0.001799268
113	0x3c2309d0	0.00995107
114	0xbcd16af3	-0.025563693
115	0x3c437e47	0.011931962
116	0xbba015af	-0.0048853974
117	0x3bd67a8f	0.006545372
118	0xbbd38547	-0.006455097
119	0x3c12f7cf	0.008970215
120	0x3c84ce65	0.016211698
121	0xbbea2c3a	-0.0071463855
122	0xbcd6c836	-0.026218515
123	0xbc51e5be	-0.012811122
124	0xbcb52ea5	-0.022116968
125	0xbc09930c	-0.008396875
126	0xbcc0b859	-0.023525404
127	0xbbda9e8c	-0.0066717323
128	0xbcd1cc67	-0.025610162
129	0xbc7ce945	-0.015436475
130	0x39fc0eb8	0.00048076152
131	0xbc383469	-0.011242964
132	0xbc6e56cf	-0.014547064
133	0xbc4b50f4	-0.012409437
134	0xbd195326	-0.037432812
135	0xbd0e3ec4	-0.034727827
136	0x3c45399e	0.012037663
137	0x3c030d94	0.007998843
138	0xbbb3c063	-0.005485581
139	0xbbc8fdb8	-0.0061337613
140	0xbbf56d14	-0.0074898098
141	0xbc198ba9	-0.0093716765
142	0xbc809892	-0.015697751
143	0xbb0073ba	-0.0019600228
144	0xbc90a02b	-0.017654499
145	0x3c8fd1a4	0.01755602
146	0xbcbebedb	-0.023284366
147	0xbd09f4c6	-0.0336807
148	0xbc0e7299	-0.008694314
149	0xbcd9bbd6	-0.026578825
150	0x3c951894	0.018200196
151	0x3c1a1302	0.009403946
152	0xbc5a4324	-0.013321672
153	0x3c2a36ec	0.010389071
154	0x3ad0ff22	0.0015945176
155	0xbc6d22ed	-0.014473659
156	0xbc8af6fd	-0.016963476
157	0x3b5fd465	0.0034153697
158	0xbcfd5142	-0.030922536
159	0xbc878b17	-0.016545815
160	0x3ca053ab	0.019571146
161	0xbcd218fc	-0.02564668
162	0x3a182e65	0.0005805253
163	0x3b88abdf	0.0041708793
164	0xbc114adf	-0.008867948
165	0xbd051f6e	-0.032500677
166	0x3b85c82f	0.0040827016
167	0xbbb172d7	-0.0054153013
168	0xbbc02314	-0.0058635566
169	0x3be82d14	0.007085452
170	0xbc5b4a4b	-0.013384412
171	0xbd05fadb	-0.032709938
172	0x3c56587e	0.013082622
173	0x3b51a2e4	0.003198796
174	0xbbcf1c0c	-0.006320482
175	0xbcd55005	-0.026039133
176	0xbc541ffc	-0.012947079
177	0xbca9fb40	-0.020749688
178	0x3b6d547e	0.0036213691
179	0xbb14c89e	-0.0022702585
180	0xbc9950c5	-0.018715272
181	0x3b9f123d	0.004854469
182	0xb7cce6d6	-2.4426186e-05
183	0xbb4aa098	-0.0030918475
184	0xbc92b40e	-0.017908122
185	0xbd0a9eca	-0.03384284
186	0xbcc6ea13	-0.024281537
187	0xbcd706fc	-0.026248448
188	0xbd226cb2	-0.03965444
189	0x3c22c9e8	0.0099358335
190	0xbb0b1b40	-0.002122596
191	0x38043ceb	3.1527987e-05
192	0xb9f5164d	-0.00046746657
193	0x3bb054bc	0.005381195
194	0x3c4097b0	0.011754915
195	0x3ceb1080	0.028694391
196	0xbc03aab7	-0.008036307
197	0xbc837dff	-0.01605129
198	0xbc72ac25	-0.01481155
199	0xbcb72eb9	-0.022361146
200	0xba828c91	-0.0009960105
201	0x3c9b391d	0.018948132
202	0xbb77c537	-0.0037806758
203	0xbbad1c94	-0.005282948
204	0xbcc4615d	-0.023972208
205	0xbca751fb	-0.020424834
206	0xbc1a37ce	-0.009412719
207	0xbb1b8f3e	-0.0023736502
208	0xbcc66e90	-0.024222642
209	0x3c69e5d4	0.014275987
210	0x3c15735b	0.009121741
211	0xbcb1d930	-0.021710008
212	0xbcb959bd	-0.022625798
213	0xbb973333	-0.0046142577
214	0xbce839ff	-0.028347967
215	0xbbe3ae9b	-0.006948305
216	0xbc005fda	-0.007835353
217	0xbbecdec6	-0.007228705
218	0xbc935988	-0.017987028
219	0x3b7c0247	0.0038453506
220	0x3c6f9d1a	0.014624858
221	0xbd05407d	-0.032532204
222	0xbd433930	-0.04766196
223	0xbc05657f	-0.008141874
224	0xbc5d94c2	-0.013524236
225	0xbd1b8c22	-0.037975438
226	0xbc3b7f6c	-0.011443954
227	0xbcc6837d	-0.02423262
228	0xbb599c30	-0.0033204667
229	0xbc4c435e	-0.012467233
230	0x39a1e1f2	0.00030876655
231	0xbc7decb3	-0.015498328
232	0x3a2079bb	0.0006121655
233	0x3bc1d0fb	0.005914805
234	0x3b1e2e67	0.0024136545
235	0xbcea83d3	-0.028627312
236	0xbc5e9d84	-0.013587359
237	0x3d14369f	0.036184903
238	0xbc05cf00	-0.008167028
239	0x3c00e03a	0.00786596
240	0x3c17151e	0.009221343
241	0xbc63efff	-0.0139122
242	0x3c643217	0.013927958
243	0xbc7d34e7	-0.015454507
244	0xbc894bc5	-0.016759763
245	0x3cd96712	0.026538406
246	0xbd353e19	-0.044248674
247	0x3974c783	0.00023343977
248	0x3c4db349	0.012554952
249	0xbd083be9	-0.03326026
250	0x3c822a8f	0.015889434
251	0x3c9d6bec	0.0192165
252	0x3c4c5d91	0.01247348
253	0x3c166b92	0.00918092
254	0xbbfd426d	-0.007728866
255	0x3ba567f0	0.0050477907

StatefulPartitionedCall/sequential/conv2d_4/BiasAdd_weights_fused_bn f4 [16, 32, 3, 3]
0	0x3c77d519	0.01512649
1	0xbd491d4d	-0.04910021
2	0xbd04a7b0	-0.03238648
3	0xbcdb55df	-0.026774345
4	0x3c455e75	0.012046446
5	0xbd3cb098	-0.04606685
6	0xbd107182	-0.0352645
7	0xbd4353f0	-0.04768747
8	0x3d4c8492	0.049931116
9	0x3c951c8a	0.018202085
10	0x3d119af1	0.035548154
11	0x3da087b8	0.07838386
12	0x3d41afc1	0.047286753
13	0x3d87dd38	0.06633991
14	0x3cce284e	0.025165703
15	0xbd7afba3	-0.061275136
16	0x3c7fe3bb	0.01561826
17	0x3d1889cc	0.03724079
18	0xbcbe8cd7	-0.023260517
19	0xbcc1b00d	-0.023643518
20	0x3d166cf4	0.036725
21	0x3c36a062	0.011146637
22	0xbd5cfd5f	-0.05395257
23	0x3bd771ca	0.006574844
24	0x3b973006	0.004613879
25	0xbbb1d359	-0.005426806
26	0x3b60cc79	0.0034301563
27	0xbd8e6613	-0.06953063
28	0x3d176902	0.036965378
29	0x3cd637be	0.026149627
30	0xbcb05de5	-0.021529147
31	0x3c83446c	0.016023837
32	0xbc80ed06	-0.015738022
33	0x3d38b092	0.045090266
34	0xbd5330c4	-0.05156018
35	0x3d2b530e	0.041827254
36	0x3d148a1a	0.036264516
37	0xbd1fb3b2	-0.03898973
38	0xbd824044	-0.06359914
39	0xbd5bd534	-0.053670123
40	0xbda708cf	-0.08155977
41	0xbd698df5	-0.057020146
42	0xbcd6210a	-0.026138801
43	0xbd03e42a	-0.032200016
44	0x3c43351c	0.011914518
45	0xbc875283	-0.016518837
46	0xbbf3107f	-0.007417738
47	0x3d184bdf	0.03718173
48	0x3c006718	0.007837079
49	0xbcbf2e2a	-0.023337442
50	0x3d251bdf	0.040309783
51	0xbd79b21b	-0.06096087
52	0x3d327a91	0.04357392
53	0x3d2ddb95	0.042445738
54	0xbd865a47	-0.06560188
55	0xbcea2baa	-0.028585274
56	0x3d3ae772	0.04563088
57	0xbd450697	-0.048101988
58	0xbd90976c	-0.070601314
59	0x3d752795	0.0598522
60	0xbd0951d1	-0.03352529
61	0x3d714acb	0.05890922
62	0x3d6e5d4c	0.058194444
63	0xbd4c11a7	-0.049821522
64	0x3bcee204	0.0063135643
65	0x3cd368ba	0.025806773
66	0xbc967d36	-0.018370252
67	0xbc7a707d	-0.015285608
68	0x3d400397	0.046878424
69	0xbb4ccb87	-0.0031249241
70	0x3c8deca9	0.017324762
71	0xba38001f	-0.0007019061
72	0xbcbdd90c	-0.023174785
73	0xbc55007a	-0.013000602
74	0xbcaded21	-0.021231236
75	0x3cec9140	0.028877854
76	0xba553043	-0.0008132497
77	0x3d46cab9	0.048533175
78	0x39882803	0.00025969752
79	0xbcd5adf7	-0.02608393
80	0x3d676b7c	0.05649899
81	0x3d874e03	0.066066764
82	0xbc6b9167	-0.014377928
83	0x3d04c996	0.03241881
84	0x3d94eb9c	0.072715014
85	0x3d538ef9	0.05165002
86	0xbd063662	-0.032766707
87	0x3d92f68f	0.071759336
88	0x3d1f8a7e	0.038950436
89	0x3c8dc603	0.017306333
90	0x3d2f3a7a	0.042780377
91	0x3d454aa6	0.048166893
92	0xbd5746f6	-0.052557908
93	0xbd207ff6	-0.039184533
94	0x3d8b4117	0.06799524
95	0x3d20f0b7	0.039292064
96	0x3d64ebf8	0.0558891
97	0x3ccbdb5b	0.02488487
98	0x3d28ce7f	0.041212555
99	0xbd90b371	-0.07065476
100	0x3d01c4a1	0.03168166
101	0x3ccaecc5	0.024771104
102	0xbc95471a	-0.01822238
103	0xbcbd25e3	-0.023089355
104	0xbd37b7fd	-0.0448532
105	0xbd8b7615	-0.06809632
106	0x3d6e1e48	0.058134347
107	0xbd2029d0	-0.039102376
108	0x3d1971b8	0.037461966
109	0x3bdb48df	0.0066920365
110	0xbd37a036	-0.044830523
111	0x3d131c3d	0.035915602
112	0x3d2ba059	0.041900966
113	0xbd11e0d2	-0.035614796
114	0xbc8db0a8	-0.01729615
115	0xbcc56b92	-0.024099145
116	0xbc4d8c35	-0.012545635
117	0x3d91a1c5	0.07110933
118	0x3d888083	0.06665137
119	0xbd15f6f7	-0.036612477
120	0xbd229030	-0.03968829
121	0x3c230ba6	0.009951508
122	0x3d4dfe78	0.05029151
123	0xbd0f6308	-0.035006553
124	0xbd386410	-0.045017302
125	0xbd28ae32	-0.04118175
126	0xbd8989ef	-0.06715762
127	0xbd81cf81	-0.06338406
128	0x3cec9421	0.028879227
129	0x3c097b0c	0.008391153
130	0xbd37deeb	-0.044890326
131	0x3c299883	0.010351303
132	0xbc4438d2	-0.011976438
133	0xbd65da55	-0.05611642
134	0x3d213f27	0.039366867
135	0x3d57b6b5	0.052664477
136	0xbd8dde1c	-0.069271296
137	0x3cccfa09	0.02502157
138	0xbbc94f26	-0.0061434684
139	0x3b19a46c	0.002344395
140	0x3b33c83e	0.0027432586
141	0xbd0f9d24	-0.03506197
142	0xbd6c0e67	-0.057630923
143	0xbd47d23d	-0.048784483
144	0xbc958af0	-0.018254727
145	0xbcd22505	-0.025652418
146	0xbd6b5b48	-0.0574601
147	0x3c4a0c23	0.012331995
148	0xbd1d4a92	-0.038401194
149	0xbd42601a	-0.04745493
150	0x3cf7930a	0.03022148
151	0x3c652731	0.013986395
152	0xbcc1ab81	-0.02364135
153	0xbd4fd170	-0.050736845
154	0x3d0470ce	0.03233414
155	0xbcf4014d	-0.029785777
156	0xbc5670ab	-0.013088386
157	0x3d26894e	0.040658288
158	0x3de33e5a	0.11095877
159	0xbca93239	-0.02065383
160	0x3dc72756	0.097242996
161	0x3d85081f	0.064956896
162	0xbd687bda	-0.05675874
163	0xbca13d41	-0.019682528
164	0x3cadb2e6	0.02120347
165	0xbd8aa978	-0.06770605
166	0xbd22f25e	-0.03978192
167	0xbd0ea56e	-0.034825735
168	0xbbaa9baa	-0.005206545
169	0x3d5ec463	0.054386508
170	0x3cf8c704	0.030368336
171	0xbc68960c	-0.01419593
172	0x3d0353bf	0.03206229
173	0xbd6078f3	-0.054802846
174	0xbd1c5418	-0.038166136
175	0xbcbe82af	-0.023255674
176	0xbaf280f5	-0.0018501567
177	0xbd6f71f4	-0.058458284
178	0xbc4edc03	-0.012625697
179	0xbd798727	-0.060919907
180	0xbd39e3fe	-0.045383446
181	0x3cf5fd73	0.03002808
182	0x3d3d1b03	0.04616834
183	0xbd7c3e42	-0.06158281
184	0x3c8065f9	0.015673624
185	0xbc744bb8	-0.014910631
186	0xbc8b6d5c	-0.01701992
187	0x3c90e250	0.01768604
188	0xbc67b81c	-0.014143016
189	0xbcd2be0c	-0.025725387
190	0x3bab97f4	0.00523662
191	0xbdbbdd4f	-0.09173071
192	0x3d84c41e	0.06482719
193	0xbd4559c8	-0.048181325
194	0xbd88f0bd	-0.06686542
195	0xbca83d39	-0.020537006
196	0x3d90de16	0.070736095
197	0xbccf5825	-0.025310585
198	0x3dc8a2ab	0.097966515
199	0x3d99df0a	0.075132445
200	0xbcd3a857	-0.025837107
201	0x3df8cbf9	0.1214828
202	0x3caf2c7e	0.02138352
203	0x3d202d60	0.039105773
204	0x3d3cdbbd	0.046107996
205	0xbca8a7b7	-0.020587785
206	0xbbd3dc77	-0.0064654904
207	0x3c78ebc7	0.015192932
208	0x3d36c9ce	0.04462605
209	0xbd1ecdbf	-0.038770434
210	0xbd9fb0f7	-0.07797425
211	0x3c4d8b14	0.012545366
212	0x3cf33aba	0.029691089
213	0x3caeb36a	0.021325786
214	0x3aff4044	0.0019474109
215	0x3b9944a8	0.004677374
216	0xbc28ce0f	-0.010303034
217	0xbd8d08e4	-0.068864614
218	0x3d11ee7e	0.035627834
219	0xbdc1f2ef	-0.09470164
220	0x3c466499	0.012108945
221	0xbd637f3c	-0.055541262
222	0xbd5c089f	-0.05371916
223	0x3cf97cf8	0.030455098
224	0x3ce61f51	0.028091105
225	0x3bb64578	0.0055624805
226	0xbc27b4ae	-0.0102359485
227	0xbd4ad47c	-0.049519047
228	0xbce19d6e	-0.027540889
229	0xbd11f6c1	-0.035635713
230	0xbc836063	-0.016037172
231	0x3c01013d	0.00787383
232	0x3d1a323c	0.037645563
233	0x3c3eb1f3	0.011639106
234	0x3cf8eb6b	0.030385694
235	0x3cde928f	0.027169494
236	0xbca5fd08	-0.020262256
237	0x3d32c24a	0.04364232
238	0x3d23621a	0.03988848
239	0xbc842c73	-0.016134476
240	0xbd6b634b	-0.05746774
241	0x3d6b05ce	0.057378583
242	0x3a69a1cf	0.0008912356
243	0x3cfafe2f	0.030638782
244	0xbd2ef965	-0.04271831
245	0x3d230c0f	0.03980642
246	0x3d2636b0	0.040579498
247	0x3c3044a3	0.010758552
248	0x3da277d9	0.079330154
249	0xbcdb9727	-0.026805473
250	0xbcff7c58	-0.031187221
251	0x3d899834	0.067184836
252	0x3be975ce	0.007124639
253	0x3ad63f2d	0.0016345732
254	0xbd6186b2	-0.055060096
255	0x3d5d19d5	0.053979713

StatefulPartitionedCall/sequential/conv2d_4/BiasAdd_bias_fused_bn f4 [16]
0	0x3dc9fbd9	0.09862489
1	0xbba51a50	-0.005038537
2	0xbf9e2d84	-1.235764
3	0xbf8a02f6	-1.0782154
4	0xbf399e01	-0.7250672
5	0x3d1f914d	0.03895693
6	0xbfc1f835	-1.5153872
7	0xbe976b43	-0.29574022
8	0x3fb1024c	1.3828826
9	0xc0097a15	-2.1480763
10	0x3f312bc9	0.69207436
11	0xbfdf0bb9	-1.7425452
12	0x3fa21432	1.2662413
13	0xbf345372	-0.7043983
14	0xbf7347c5	-0.95031387
15	0x3fb649da	1.4241288

StatefulPartitionedCall/sequential/conv2d_3/BiasAdd_weights_fused_bn f4 [32, 16, 3, 3]
0	0x3d4e3fd2	0.050353833
1	0xbc489c13	-0.012244242
2	0xbd13d3d8	-0.0360907
3	0x3d2c9953	0.04213841
4	0x3e189a37	0.14902578
5	0xbd3e0d12	-0.046399184
6	0x3d8881b4	0.06665364
7	0x3db5c971	0.088763125
8	0xbd363d34	-0.04449196
9	0xbbec322e	-0.0072081303
10	0xbe235063	-0.15948634
11	0x3c6ee552	0.014581041
12	0x3e1a2111	0.15051676
13	0x3da24176	0.07922642
14	0xbd8c30af	-0.06845223
15	0x3d0fedd8	0.035138935
16	0x3d5af974	0.053460553
17	0xbdea337b	-0.114356
18	0x3b97874c	0.004624283
19	0x3df39988	0.11894518
20	0x3d9498c4	0.072557
21	0x3d14b125	0.03630175
22	0xbd626bee	-0.05527871
23	0x3d9a27ac	0.07527098
24	0xbb87d1e6	-0.004144895
25	0x3d9020cd	0.07037506
26	0x3ceb5ba2	0.028730217
27	0x3d049ab2	0.03237409
28	0x3dadf451	0.08493865
29	0x3e0a792a	0.13522783
30	0xbd151360	-0.03639543
31	0xbd13993d	-0.03603481
32	0x3ccea978	0.025227293
33	0x3d0628c1	0.03275371
34	0xbc140449	-0.009034225
35	0xbde647aa	-0.112441376
36	0x3d27ad94	0.04093702
37	0xbd9e4ba6	-0.077292725
38	0xbdd281b5	-0.10278646
39	0xbb6db2eb	-0.0036269973
40	0xbb3a0d38	-0.0028389227
41	0xbcdb272b	-0.026752075
42	0x3d722e40	0.05912614
43	0xbdc1114d	-0.09427128
44	0xbddbdf20	-0.10735917
45	0x3d149db5	0.036283214
46	0xbd7b13f1	-0.061298314
47	0x3c47e030	0.012199447
48	0xbd62e992	-0.05539853
49	0x3dc192cb	0.09451827
50	0x3c8bdb16	0.017072242
51	0xbd82fd86	-0.06396012
52	0xbb543422	-0.0032379706
53	0x3ca5c85e	0.020237144
54	0xbd0a357c	-0.033742413
55	0x3d6d696b	0.057961863
56	0xbd58a17e	-0.052888386
57	0xbb890432	-0.0041814083
58	0x3ca0bc0d	0.01962092
59	0xbd6138dc	-0.054985866
60	0x3c8b293b	0.016987434
61	0x3d0e1bc3	0.034694444
62	0xbe27c308	-0.16382992
63	0x3dfe00cd	0.124024965
64	0xbd306a7b	-0.043070298
65	0x3dea95bd	0.114543416
66	0xbd8bcaca	-0.06825788
67	0x3e2a1ea2	0.16613248
68	0xbcd32abb	-0.025777211
69	0xbd2ed8cd	-0.042687226
70	0xbd4b6fc6	-0.049667142
71	0xbdd8efbb	-0.105926
72	0x3d0405a2	0.032231934
73	0x3daa0d55	0.08303324
74	0xbd49485b	-0.04914127
75	0x3d8188bd	0.06324909
76	0x3e066536	0.13124546
77	0x3be93b77	0.0071176845
78	0x3d0d4f41	0.03449941
79	0xbc38bf0c	-0.011276018
80	0xbd3301af	-0.043702777
81	0x3db5bed3	0.088742875
82	0xbd8cc9f6	-0.068744585
83	0xbe0d46a0	-0.13796473
84	0x3daf746b	0.08567127
85	0x3df42752	0.11921562
86	0xbd382d91	-0.04496533
87	0x3df88f4e	0.12136708
88	0x3e2a6f61	0.1664405
89	0x3b6e1230	0.0036326759
90	0x3db0ca4c	0.08632335
91	0x3b045eef	0.0020198186
92	0xbdcc56aa	-0.09977467
93	0xbe108674	-0.1411379
94	0xbde8546c	-0.11344227
95	0xb9f12fbf	-0.00046002676
96	0xbd7bd51b	-0.06148253
97	0xbdb97c4c	-0.09056911
98	0xbd9cf5fc	-0.07664105
99	0x3b02f3a9	0.0019981659
100	0x3d939c0d	0.07207499
101	0x3d182581	0.03714514
102	0x3c99a0ed	0.018753493
103	0x3db243d1	0.08704341
104	0x3d98ba5e	0.07457422
105	0xbd8c4dc4	-0.0685077
106	0x3e0cf7a4	0.13766342
107	0xbdb85eca	-0.090024546
108	0x3e40261d	0.18764539
109	0xbc13eae5	-0.009028171
110	0x3a381063	0.0007021485
111	0x3e1bd273	0.15216999
112	0x3db62e4f	0.088955514
113	0xbc997d70	-0.018736571
114	0xbdbf702a	-0.093475655
115	0xbc8e3fc5	-0.017364392
116	0x3da0a2e3	0.07843568
117	0x3ce6d5a2	0.02817804
118	0x3e210164	0.15723187
119	0x3ded82e3	0.1159723
120	0xbdf382f3	-0.11890211
121	0x3e07973c	0.13241285
122	0x3dbdd71d	0.09269545
123	0xbe14409f	-0.14477776
124	0x3bbc1885	0.0057402276
125	0xbd6508ec	-0.05591671
126	0x3dca4ce6	0.098779485
127	0xbd311db3	-0.043241214
128	0x3d186cfb	0.037213307
129	0xbac7f498	-0.001525539
130	0xbdc08913	-0.09401145
131	0xbdcb0658	-0.09913319
132	0xbd245d23	-0.040127885
133	0x3d72ce4f	0.059278782
134	0x3d8eaf00	0.06966972
135	0x3d551545	0.052022237
136	0xbd7a0920	-0.06104386
137	0xbd4762ac	-0.048678085
138	0xbdf63017	-0.12020891
139	0x3d9aedf4	0.07564917
140	0x3dd1e0a4	0.10247925
141	0x3d9c2b5f	0.0762546
142	0x3e03004c	0.12793082
143	0x3d9af4c2	0.07566215
144	0xbb814326	-0.0039447723
145	0xbe250001	-0.16113283
146	0xbd7edbff	-0.062221523
147	0xbd0f1897	-0.03493556
148	0xbcdbec78	-0.026846156
149	0x3db38f52	0.087675706
150	0xbce398f5	-0.027782897
151	0xbd9ec922	-0.07753207
152	0x3cc85f7c	0.024459593
153	0xbda0caff	-0.078512184
154	0xbe083697	-0.13302074
155	0xbdaf31c3	-0.08554413
156	0x3d5e0eba	0.054213263
157	0xbdcb0f25	-0.09914998
158	0xbd9b90f3	-0.07596006
159	0x3d9a7f28	0.075437844
160	0x3d9351d7	0.07193344
161	0xbcb547a3	-0.022128886
162	0x3d6c74de	0.05772864
163	0xbd4a4dff	-0.04939079
164	0xbe147f4d	-0.14501686
165	0xbe0c4871	-0.13699509
166	0x3d6b58a7	0.057457592
167	0xbdaf5134	-0.0856041
168	0xbd8f20bb	-0.06988665
169	0x3bb43d57	0.0055004763
170	0xbd66e349	-0.0563691
171	0x3dabe871	0.08393944
172	0x3dd7973d	0.10526893
173	0xbd2c9e14	-0.042142943
174	0xbe11b3fa	-0.14228812
175	0x3a2b1d1f	0.00065274717
176	0xbd6a323e	-0.05717682
177	0xbd96dfa7	-0.07366877
178	0xbe10d556	-0.14143881
179	0xbdf86f60	-0.12130618
180	0xbe0557f9	-0.1302184
181	0x3db3f388	0.08786684
182	0xbda7bd24	-0.081903726
183	0xbd44ea9f	-0.048075315
184	0xbd023e59	-0.03179774
185	0xbd8150b1	-0.06314219
186	0x3d55303c	0.052047953
187	0xbb6a536b	-0.0035755287
188	0x3d7a4f29	0.06111065
189	0x3d06315a	0.03276191
190	0xbde71576	-0.1128339
191	0xbdb71839	-0.08940167
192	0xbdd56831	-0.104202636
193	0xbd160e0c	-0.03663449
194	0x3ba8f524	0.005156176
195	0xbce9ac14	-0.028524436
196	0x3dcb7ddb	0.099361144
197	0xbd0193d7	-0.03163513
198	0x3e169182	0.14703944
199	0x3d90137c	0.07034966
200	0xbe008073	-0.12549
201	0x3c52e65b	0.012872304
202	0x3de12fc3	0.10995438
203	0x3bbd166a	0.005770494
204	0x3d85165a	0.06498404
205	0x3d60cb5a	0.05488143
206	0x3caec4bd	0.021334046
207	0x3d9e9ee7	0.07745152
208	0x3abaf318	0.0014263121
209	0xbc67547a	-0.014119262
210	0xbd892612	-0.066967145
211	0xbd998c08	-0.07497412
212	0xbd28bdff	-0.04119682
213	0x3da6dc15	0.08147446
214	0x3d187feb	0.037231367
215	0xbd8780ca	-0.066163614
216	0xbe021482	-0.12703136
217	0x3d59aaaa	0.053141274
218	0x3c542ac1	0.012949646
219	0x3d28c555	0.041203815
220	0xba73f732	-0.00093065493
221	0xbdbe60d4	-0.09295812
222	0xbc8657c2	-0.016399268
223	0xbda69cef	-0.081354015
224	0x3dbb4ada	0.09145136
225	0x3b780102	0.0037842398
226	0x3e0bd176	0.13654122
227	0x3df7128d	0.12064085
228	0xbe1eb355	-0.15498097
229	0x3ddedc69	0.10881884
230	0xbdb9632f	-0.09052121
231	0x3d00d06e	0.031448774
232	0x3d456214	0.048189238
233	0xbdf2c4b7	-0.11853927
234	0xbdc47e08	-0.09594351
235	0xbdded1d2	-0.10879864
236	0x3da672ea	0.08127387
237	0xbd2d8931	-0.042367164
238	0xbd60733d	-0.0547974
239	0x3c332df6	0.010936251
240	0xbdd10fa8	-0.10208064
241	0xbc7bffc6	-0.015380805
242	0xbd9abefb	-0.07555958
243	0x3dfcda65	0.12346343
244	0x3c33dff0	0.010978684
245	0xbde3cb14	-0.111227185
246	0xbcd38b43	-0.025823241
247	0xbc162f6f	-0.0091665825
248	0xbe075412	-0.13215664
249	0x3c003289	0.0078245485
250	0xbd163f87	-0.03668168
251	0x3d6879b1	0.05675668
252	0x3d376cc2	0.044781454
253	0x3d13886a	0.036018766
254	0xbd243f4a	-0.04009942
255	0xbc7063f6	-0.01467227

StatefulPartitionedCall/sequential/conv2d_3/BiasAdd_bias_fused_bn f4 [32]
0	0xbf84a1cd	-1.0361878
1	0x3fb1d6d7	1.3893689
2	0x3ebfb5d1	0.37443402
3	0xbd5dc06b	-0.054138582
4	0xbebf263a	-0.37333852
5	0x3e2c1c6c	0.16807717
6	0xbe63af86	-0.22234926
7	0x3ebec8b9	0.37262514
8	0xbfa0ba9f	-1.2556952
9	0x3f867d90	1.0507069
10	0xbe4e5dd5	-0.20152982
11	0xbe3deb60	-0.1854682
12	0xbe6b1866	-0.22958526
13	0xbdaae49a	-0.083443835
14	0x3ea3fdb4	0.32029498
15	0xbf6cbe0e	-0.924775
16	0xbeb3177d	-0.34978858
17	0x3ef0e47b	0.47049317
18	0xbf32c804	-0.6983645
19	0xbee88e87	-0.4542124
20	0x3fb4101f	1.406742
21	0x3f88d3f3	1.0689682
22	0x3fc8773d	1.5661389
23	0xbf625b5f	-0.8842067
24	0xbe178844	-0.14798075
25	0xbf88438e	-1.0645616
26	0x3f55e945	0.83559066
27	0xbdb7872c	-0.08961329
28	0xbfa49c7a	-1.2860253
29	0xbf282f36	-0.6569704
30	0x3f8cdd22	1.1004984
31	0x3ed674d6	0.41886014

StatefulPartitionedCall/sequential/conv2d_2/BiasAdd_weights_fused_bn f4 [16, 32, 3, 3]
0	0x3db16bda	0.08663149
1	0xbcd5f140	-0.026116014
2	0x3e07cb42	0.1326113
3	0x3d6ac1d6	0.057313763
4	0x3cb88021	0.022522034
5	0x3db81637	0.08988612
6	0xbd9f3f23	-0.07775714
7	0xbe0213d6	-0.1270288
8	0x3e17463d	0.14772888
9	0xbcf7a39d	-0.030229384
10	0xbd46197b	-0.048364144
11	0xbdebbcd4	-0.115106255
12	0xbd953f96	-0.07287519
13	0x3d0ddc29	0.03463379
14	0xbd34758a	-0.044057406
15	0xbd5a3af1	-0.053278867
16	0xbd2b226a	-0.041780867
17	0xbda10652	-0.07862534
18	0x3df06354	0.11737695
19	0x3e0614a5	0.13093813
20	0xbd6280a3	-0.05529846
21	0xbda549bb	-0.080707036
22	0xbce0fe3b	-0.027464977
23	0xbdc74e90	-0.097317815
24	0xbd94f29e	-0.07272838
25	0x3deb062d	0.11475787
26	0xbc243ced	-0.010024291
27	0xbd47141f	-0.048603173
28	0x3d4a4739	0.04938433
29	0x3d35bf57	0.04437193
30	0x3d55d180	0.052201748
31	0x3d095d71	0.03353638
32	0x3d8a3a17	0.06749361
33	0x3d768733	0.06018753
34	0x3d4d8908	0.05017951
35	0xbde9f521	-0.11423708
36	0xbde87d7f	-0.113520615
37	0x3b715956	0.003682693
38	0xbd91638b	-0.070990644
39	0xbdfdd44f	-0.1239401
40	0xbd90da76	-0.07072918
41	0x3d8b94d2	0.068154946
42	0x3d0d1a07	0.03444865
43	0x3d8ae652	0.06782211
44	0xbc1dbf50	-0.009628132
45	0xbcd5b7bb	-0.026088586
46	0xbc39b53d	-0.0113347145
47	0xbda2a368	-0.079413235
48	0x3ded331e	0.115820155
49	0xbbba58e1	-0.0056868647
50	0x3d876602	0.06611253
51	0x3d7fd377	0.062457528
52	0xbd99656b	-0.07490047
53	0xbd8c06f5	-0.068372644
54	0x3d8c8f9d	0.068633296
55	0x3c1dc8fe	0.00963044
56	0xbd8eafd8	-0.06967133
57	0x3e0a4fa1	0.13506939
58	0xbc3f32a7	-0.011669791
59	0x3d4e45db	0.050359588
60	0xbd9b1b6e	-0.07573591
61	0xbddfba24	-0.109241754
62	0x3d87d11b	0.066316806
63	0xbd7735d3	-0.060354065
64	0x3d4429f7	0.047891583
65	0xbd8eded0	-0.06976092
66	0xbd24db03	-0.04024793
67	0xbda78d25	-0.08181218
68	0xbc87abbc	-0.016561382
69	0x3d9e16df	0.07719206
70	0x3d12aad7	0.035807457
71	0x3e03e999	0.12882079
72	0xbd8147ae	-0.063125
73	0x3df4c177	0.11950963
74	0x3dc4be4c	0.09606609
75	0xbd2f4a42	-0.042795427
76	0xbe03b03d	-0.12860198
77	0xbd3257ed	-0.043540884
78	0xbd0c3099	-0.034226034
79	0xbde1478d	-0.10999975
80	0xba6aa8c8	-0.0008951542
81	0x3a4175b8	0.0007379907
82	0x3bf0c207	0.0073473486
83	0x3dd86cfb	0.105676614
84	0x3e08ef07	0.13372432
85	0xbd43b84a	-0.047783174
86	0x3d143cfb	0.036190968
87	0xbda40b15	-0.08009926
88	0x3e1c9fb5	0.15295298
89	0x3c9b693b	0.018971076
90	0x3db78c38	0.089622915
91	0x3dfef219	0.1244852
92	0x3cbd9e84	0.023146875
93	0x3caca376	0.021074038
94	0xbd8fcb7e	-0.07021235
95	0xbd829342	-0.063757434
96	0xbdd73a7f	-0.10509204
97	0x3dc79535	0.09745256
98	0x3da58e01	0.08083726
99	0xbbc19e99	-0.005908799
100	0xbe030e32	-0.12798384
101	0x3bfb7cbd	0.007674782
102	0x3d3c0071	0.04589886
103	0xbe074254	-0.13208896
104	0xbd4270e0	-0.047470927
105	0x3d39f8d3	0.045403313
106	0xbd4d7914	-0.050164297
107	0xbdb1e415	-0.08686081
108	0xbe013365	-0.12617262
109	0xbdde4c9e	-0.10854457
110	0x3d8b59be	0.06804226
111	0x3c109a10	0.008825794
112	0xba473554	-0.0007599194
113	0xbd30e151	-0.04318363
114	0x3e1962b1	0.14979054
115	0x3d263615	0.04057892
116	0x3dd5a9fe	0.10432814
117	0xbd1cffe6	-0.03832998
118	0x3ceb9fad	0.028762663
119	0xbd3d0746	-0.046149515
120	0x3d9017dd	0.070358016
121	0x3dfffdd8	0.12499589
122	0xbe02e50c	-0.12782687
123	0x3d0e37a1	0.03472102
124	0x3c46a74d	0.012124849
125	0x3cc95d29	0.024580555
126	0x3deda98b	0.116046034
127	0xbd77c80b	-0.06049351
128	0xbe0b6eb0	-0.13616443
129	0xbdf77742	-0.120832935
130	0xbc10e268	-0.008843042
131	0xbd363073	-0.0444798
132	0x3d83a932	0.06428756
133	0x3dc6fc67	0.09716111
134	0x3dd6738b	0.10471257
135	0x3da6e843	0.08149769
136	0x3d3ba8b1	0.045815174
137	0xbe22a175	-0.15881903
138	0xbd1ed5c3	-0.038778078
139	0x3d8abad9	0.067739196
140	0xbda39902	-0.07988168
141	0xbe13aca4	-0.14421326
142	0xbc9554c8	-0.018228903
143	0x3d21c226	0.039491795
144	0x3d8d3b02	0.068960205
145	0xbce4e1ec	-0.02793976
146	0x3ddfd6e5	0.1092966
147	0xbc4205c5	-0.011842196
148	0xbd898de5	-0.06716517
149	0xbd949936	-0.07255785
150	0xbda0826d	-0.07837377
151	0x3dfa3703	0.12217524
152	0x3de92636	0.11384241
153	0xbd9b668c	-0.07587919
154	0xbd76d97c	-0.060266003
155	0xbd5eeaf2	-0.05442328
156	0xbcb46d59	-0.022024797
157	0x3dee530c	0.11636934
158	0xbca61ce6	-0.020277452
159	0xbdde301f	-0.10849022
160	0x3dd8ff53	0.10595574
161	0x3d8e72bf	0.0695548
162	0x3c8fbb65	0.017545411
163	0xbdc9dac4	-0.09856179
164	0x3b50b359	0.003184518
165	0xbdf7101c	-0.120636195
166	0x3d8a7931	0.06761397
167	0xbd2baf82	-0.041915424
168	0xbd71a976	-0.0589995
169	0x3d44599c	0.04793702
170	0xbddb6d13	-0.10714164
171	0xbdf5f401	-0.12009431
172	0xbe018d2d	-0.1265151
173	0x3d9487d0	0.07252467
174	0x3d3bf2f8	0.04588601
175	0xbd699431	-0.057026092
176	0xbd99f2e0	-0.07517028
177	0xbcc148ef	-0.023594348
178	0x3d017354	0.031604126
179	0xbdac783e	-0.08421372
180	0xbd39a615	-0.045324404
181	0xbdebbc8d	-0.115105726
182	0x3d7bdcc9	0.061489854
183	0xbd4d2764	-0.050086394
184	0x3d8a324b	0.06747874
185	0xbd387baa	-0.04503981
186	0x3d3c139b	0.045917135
187	0xbe225b3b	-0.15855114
188	0x3d453250	0.048143685
189	0xbc7891cc	-0.015171479
190	0xbc7fe3f9	-0.015618318
191	0xbcef430f	-0.02920678
192	0x3d1fd36e	0.039019994
193	0x3cd611d6	0.026131552
194	0xbdf8182e	-0.12113987
195	0xbdc04377	-0.09387868
196	0x3d759035	0.05995198
197	0xbca64dc1	-0.020300748
198	0xbd88b7b4	-0.066756636
199	0x3d7ee150	0.062226593
200	0x3dee397f	0.1163206
201	0xbd654b9c	-0.05598031
202	0x3c86a206	0.01643468
203	0x3d85cbec	0.06533036
204	0xbd21822b	-0.03943078
205	0xbdbc7e3b	-0.09203764
206	0x3e0fd2f6	0.14045319
207	0xbcdb2de0	-0.026755273
208	0x39492711	0.00019183407
209	0xbd0904de	-0.033451907
210	0xbdf4558b	-0.119303785
211	0x3d7e8337	0.062136855
212	0x3db53176	0.088473246
213	0xbd8b1174	-0.06790438
214	0xbda51c65	-0.080620565
215	0x3cf3370a	0.02968933
216	0xbd896396	-0.06708448
217	0xbc9a925f	-0.018868623
218	0x3de5e203	0.11224749
219	0x3dcc1534	0.09964982
220	0xbd87185c	-0.06596443
221	0xbd3383ef	-0.043826994
222	0xbdb7705a	-0.08956976
223	0x3dae0335	0.084967054
224	0x3d755925	0.059899468
225	0xbd872f9c	-0.06600878
226	0xbd2fc268	-0.04291001
227	0x3dca3f88	0.09875399
228	0x3dfecc49	0.12441308
229	0xbd595d90	-0.053067744
230	0xbd81323e	-0.06308411
231	0x3c712b46	0.01471979
232	0x3b149415	0.0022671272
233	0xbdae0bb6	-0.084983274
234	0xbdbcb9a6	-0.09215097
235	0xbcf11de3	-0.029433196
236	0x3d5db770	0.054130018
237	0x3e0ca31d	0.13734098
238	0xbdbb673c	-0.0915055
239	0x3c8b8aea	0.017034013
240	0x3e06dff4	0.13171369
241	0x3c89cec7	0.016822232
242	0x3d96f2c1	0.073705204
243	0x3c1d5771	0.009603367
244	0x3dbc2bc0	0.09188032
245	0xbe228a11	-0.1587298
246	0xbc49effa	-0.012325281
247	0xbdce00c0	-0.10058737
248	0x3cad69b3	0.021168565
249	0x3e08f3b8	0.13374221
250	0xbc6f2fca	-0.014598796
251	0x3d82d344	0.06387952
252	0x3d84c9d3	0.064838074
253	0x3d7630eb	0.060105246
254	0xbd14577f	-0.036216255
255	0xbd167b10	-0.036738455

StatefulPartitionedCall/sequential/conv2d_2/BiasAdd_bias_fused_bn f4 [16]
0	0xbe001eaa	-0.12511697
1	0x3b5cf170	0.0033713244
2	0x3e9afe3d	0.30272093
3	0xbc8d7314	-0.017266788
4	0xbeeb1581	-0.45914844
5	0x3e18b1f2	0.14911631
6	0x3f21b37d	0.631645
7	0xbf81f91f	-1.0154151
8	0x3e17ecf6	0.14836487
9	0x3f08d173	0.53444594
10	0xbf3a3be1	-0.7274762
11	0xbf009211	-0.5022288
12	0x3f945876	1.1589496
13	0xbe9b4c03	-0.3033143
14	0xbedd9fa0	-0.43285847
15	0x3e39e6bb	0.18154423

StatefulPartitionedCall/sequential/conv2d_1/BiasAdd_weights_fused_bn f4 [32, 16, 3, 3]
0	0x3c47d7ac	0.012197416
1	0x3da4b9fa	0.08043285
2	0x3dbcab7f	0.09212398
3	0xbd88b7a8	-0.06675655
4	0x3dd86d9a	0.1056778
5	0xbd122bbc	-0.03568624
6	0xbcdd3f39	-0.027007686
7	0xbd24c08b	-0.040222686
8	0x3d151d1a	0.036404707
9	0x3b4cdaa8	0.003125826
10	0x3da0d942	0.07853939
11	0xbdd92daf	-0.106044166
12	0x3b75a74a	0.0037483745
13	0xbb00ceb2	-0.001965445
14	0x3b627c7e	0.0034559066
15	0xbd3ce764	-0.04611911
16	0xbc698bc9	-0.014254519
17	0x3d6022c1	0.054720644
18	0x3d95fc7c	0.07323548
19	0x3cd83f90	0.026397496
20	0xbc9be8e0	-0.019031942
21	0xbd857970	-0.06517303
22	0x3cd672f5	0.026177863
23	0xbcac80e6	-0.021057557
24	0x3c812733	0.015765762
25	0xbd90fc9d	-0.07079432
26	0xbd4bf6d9	-0.04979596
27	0xbd0e8826	-0.03479781
28	0x3d5dde83	0.05416728
29	0x3db00d20	0.085962534
30	0x3c799cd0	0.015235141
31	0x3d02f890	0.03197533
32	0xbb92fd8c	-0.0044857915
33	0xbd0cbee6	-0.034361742
34	0x3d4f1502	0.050557144
35	0x3b682b2b	0.003542612
36	0xbd4c47bf	-0.04987311
37	0xbd7d6545	-0.061864156
38	0x3c9337df	0.017970977
39	0xbd74ca60	-0.059763312
40	0x3d1a42f0	0.037661493
41	0x3d28b22c	0.041185543
42	0x3c78ab21	0.015177519
43	0x3d80cf48	0.06289536
44	0x3cdf6dfb	0.027274122
45	0x3d6436a5	0.055716176
46	0xbceb347e	-0.028711554
47	0x3b367173	0.0027838617
48	0xbde37066	-0.11105423
49	0xbdbd1ef8	-0.092344224
50	0xbce5bec4	-0.028045066
51	0x39fde150	0.0004842379
52	0xbd165611	-0.036703173
53	0x3d63c865	0.055611033
54	0xbc811a40	-0.015759587
55	0xbd45f4af	-0.04832905
56	0xbdc2df41	-0.095152386
57	0x3c14c1b5	0.0090793865
58	0xbdc36d63	-0.09542348
59	0x3d5e4163	0.054261576
60	0x3d6aed1f	0.057355043
61	0x3da679cf	0.08128702
62	0x3db4da8a	0.088307455
63	0xbc8db45e	-0.01729792
64	0x3db544b4	0.08850995
65	0xbceeab35	-0.029134372
66	0x3dbabc81	0.091179855
67	0xbd730a7d	-0.059336174
68	0xbd7471d1	-0.059678856
69	0x3dd0ee62	0.10201718
70	0xbd096d5c	-0.03355156
71	0xbdb2e69f	-0.08735394
72	0xbd1a9cad	-0.037747074
73	0x3d221756	0.039573036
74	0x3d8898a1	0.06669737
75	0x3c2f3b3a	0.010695273
76	0x3da482fd	0.080327965
77	0xbd6d0e93	-0.057875227
78	0x3d2b2fb7	0.04179355
79	0xbab2d13b	-0.0013642678
80	0x3d79544d	0.06087141
81	0xbd14c34f	-0.036319073
82	0x3ccccce6	0.025000047
83	0xbdb4fe78	-0.088375986
84	0x3b166237	0.0022946724
85	0xbd306687	-0.043066528
86	0xbd2f496f	-0.04279464
87	0xbd8d1345	-0.06888441
88	0x3d126937	0.035744872
89	0x3d9f86f5	0.07789413
90	0xbda2ace3	-0.07943132
91	0xbd3750f5	-0.04475494
92	0xbd25ff5e	-0.04052674
93	0xbd1468ce	-0.036232762
94	0x3cbbb769	0.022914605
95	0xbdc6142d	-0.09671817
96	0x3c2feb67	0.010737277
97	0xbdf8f897	-0.1215679
98	0xbe015224	-0.1262899
99	0xbd56a7ab	-0.052405994
100	0x3d93aab9	0.07210297
101	0x3cad9460	0.021188915
102	0x3d0c5ea3	0.03426994
103	0x3da40792	0.080092564
104	0xbd0739f5	-0.033014257
105	0xbd58ed5b	-0.052960735
106	0x3dc72554	0.09723917
107	0xbd50e754	-0.05100186
108	0xbda34cf2	-0.079736605
109	0x3cd60a61	0.026127996
110	0xbd707bb7	-0.058711734
111	0xbd949b0d	-0.07256136
112	0xbdacff96	-0.08447187
113	0x3d7465f4	0.059667543
114	0xbb1ccedd	-0.002392701
115	0xbdab71c0	-0.083713055
116	0xbd8a9307	-0.067663245
117	0x3c7f55b7	0.015584401
118	0xbc63ae16	-0.013896486
119	0x3d8cbee1	0.06872345
120	0x3d050d0d	0.03248315
121	0xbcbb01f7	-0.022828085
122	0xbbb68d8c	-0.005571073
123	0xbd8d674d	-0.06904469
124	0x3d62309f	0.05522215
125	0xbce11db0	-0.027479976
126	0x3dc3d414	0.09561935
127	0x3ce37324	0.027764864
128	0x3dc55c26	0.096367165
129	0x3d1cb407	0.038257625
130	0x3cb74531	0.02237186
131	0xbd83341b	-0.06406423
132	0xbc2a1fea	-0.0103835855
133	0x3b44557d	0.0029958182
134	0x3b805703	0.0039166226
135	0x3d58b5a9	0.05290762
136	0x3c6f4687	0.014604217
137	0x3d309702	0.043112762
138	0xbd72ff52	-0.059325524
139	0x3d42dcd6	0.047573887
140	0xbd9fb124	-0.07797459
141	0x3cafe1fc	0.021470062
142	0x3d18b6eb	0.03728382
143	0xbd4fc25f	-0.050722476
144	0xbd430f0c	-0.04762177
145	0xbd770383	-0.060306083
146	0x3ce4f52b	0.027948936
147	0xbde0b645	-0.10972265
148	0xbdf289ec	-0.11842713
149	0xbbcd33b7	-0.0062622684
150	0xbdcba149	-0.09942872
151	0x3d4c9098	0.049942583
152	0xbdfaeda5	-0.12252358
153	0xbd1b8d61	-0.037976626
154	0xbd2a396f	-0.04155868
155	0x3d6bb417	0.057544794
156	0x3d2fa488	0.04288152
157	0xbd695032	-0.056961246
158	0x3c44e813	0.012018221
159	0xbdf31001	-0.11868287
160	0x3d80cd4b	0.062891565
161	0xbd3d1ec3	-0.046171915
162	0x3d7fb8cc	0.062432095
163	0x3dca240f	0.09870159
164	0x3ca739e4	0.020413347
165	0x3de0810b	0.10962113
166	0xbca97abe	-0.02068841
167	0xbd56e898	-0.052467912
168	0x3ca18b1a	0.01971965
169	0x3d862f26	0.065519616
170	0x3dbe091f	0.092790835
171	0xbdeb1fcc	-0.11480674
172	0xbdde7762	-0.10862614
173	0x3c964d75	0.018347481
174	0xbc4414fd	-0.011967895
175	0xbdd5ad70	-0.10433471
176	0xbd5972fc	-0.053088173
177	0xbc9c0c75	-0.019048909
178	0xbdc3074e	-0.09522878
179	0xbe08de99	-0.13366164
180	0x3d1f9015	0.038955767
181	0xbd380969	-0.04493085
182	0x3d0aead7	0.033915367
183	0xbd5bf31e	-0.05369865
184	0x3deb2954	0.11482492
185	0x3dd09bb2	0.101859465
186	0x3d530514	0.051518515
187	0xbd622428	-0.055210263
188	0x3d94d85c	0.0726783
189	0xb9980c21	-0.00029000736
190	0x3dccfc7b	0.10009094
191	0xbd80bfc2	-0.06286575
192	0xbc9cc80b	-0.019138357
193	0x3dd37308	0.10324675
194	0xbd2826f3	-0.04105277
195	0x3c0e5777	0.008687845
196	0x3cb54bf1	0.022130938
197	0x3d496a00	0.049173355
198	0x3cba776a	0.02276202
199	0x3d17f0b2	0.03709478
200	0x3deb9df8	0.115047395
201	0x3cb3e474	0.02195952
202	0x3ddd450a	0.10804184
203	0x3d83957b	0.064249955
204	0x3d76388e	0.06011253
205	0x3d211e74	0.039335683
206	0xbd5c7fda	-0.053832866
207	0x3cf49d95	0.029860297
208	0x3c0ff807	0.008787162
209	0xbdaefeaf	-0.08544671
210	0x3d1de50a	0.038548507
211	0xbdc2ce95	-0.09512059
212	0xbd548218	-0.05188188
213	0xbd3f753b	-0.04674266
214	0xbcee6fd8	-0.029106066
215	0xbdcadd5e	-0.09905504
216	0xbd81f16e	-0.06344877
217	0x3cf0833e	0.029359456
218	0x3c124233	0.008926916
219	0x3dcf16d2	0.101117745
220	0x3c9afb9d	0.018918807
221	0xbddbba65	-0.10728911
222	0xbc9b0ef7	-0.018928034
223	0xbd160e7a	-0.0366349
224	0x3c7f49df	0.015581577
225	0xbddcb2b7	-0.10776275
226	0x3ba0b4a4	0.0049043465
227	0x3d9301b8	0.07178062
228	0xbca38f2f	-0.019965736
229	0x3d4048e5	0.046944518
230	0xbd42e018	-0.047576994
231	0x3d542df7	0.051801648
232	0x3d7f3d1c	0.062314138
233	0x3d152649	0.036413465
234	0x3d8a92b3	0.06766262
235	0xbcdc632f	-0.026902763
236	0xbc98c11e	-0.018646773
237	0xbd80a43b	-0.062813245
238	0x3dbfe7f8	0.093704164
239	0x3c300834	0.010744143
240	0xbcb45799	-0.022014426
241	0x3d4d20fe	0.050080292
242	0xbda1793e	-0.07884453
243	0x3ca83bfa	0.020536412
244	0x3c477c90	0.012175694
245	0xbd9636c1	-0.07334662
246	0xbc6e057c	-0.014527675
247	0xbddbf9a5	-0.10740975
248	0xbd62bcef	-0.055355962
249	0x3db62ffa	0.088958696
250	0xbda56e46	-0.080776736
251	0xbce11880	-0.027477503
252	0x3b7ef4e3	0.0038903288
253	0x3d8219bb	0.06352564
254	0xbd6974b2	-0.056996055
255	0x3ce61d9c	0.02809029
