model.onnx (onnx, 675124 bytes, 13 tensors)

StatefulPartitionedCall/sequential/dense_1/MatMul/ReadVariableOp:0 f4 [256, 1]
-0.12889583 0.02510468 0.14519244 0.008088368 -0.13085422 0.12937151 -0.02323475 0.07445742
0.10868044 0.01001076 -0.16245194 0.019650172 -0.1414988 -0.13604243 -0.06943509 0.003936267
0.15341167 -0.033300124 0.09027587 -0.02654202 0.053404935 0.12224403 -0.06604492 0.11994843
0.0021945776 0.011074073 0.044880293 -0.14090128 -0.11283697 -0.0023125948 0.018284354 0.09213179
-0.027117489 0.035859786 0.055086743 -0.008573746 -0.08965358 -0.114806056 -0.1402317 -0.14282368
0.12298847 -0.08155992 -0.001085376 0.117286436 -0.04814952 -0.020714639 0.093437985 -0.15646203
-0.1395481 0.13184611 -0.09936625 0.031171143 0.022060916 0.03602474 -0.25607944 -0.018497633
-0.051330294 0.12638646 0.021748414 -0.06681765 0.124246955 0.09272507 0.017079975 0.05237474
0.056289967 -0.109366104 -0.07025582 -0.039714262 -0.11142128 0.117315605 0.048978847 0.102586396
0.009370937 -0.06080546 -0.14301535 0.09125591 -0.016044779 0.1045779 -0.08121869 -0.12744606
0.07227766 -0.03464677 -0.06045053 -0.123543285 -0.023082087 0.115077846 -0.027186392 -0.074136965
0.008597799 -0.19513921 0.00054902595 -0.2130321 0.13906457 0.12476211 0.019057615 -0.12750208
-0.09374291 0.027278429 0.058339845 -0.0061941464 -0.16069962 0.1361267 0.048223086 0.1341955
-0.15108456 0.019132094 0.13355175 -0.120884046 0.12000471 -0.13844296 -0.12652878 0.15135771
-0.09972246 -0.102381185 0.093251385 0.11346639 -0.13557173 0.056650802 0.17495924 -0.14873396
0.13180314 -0.060505062 0.10503342 -0.13248928 -0.06527609 0.095492154 -0.18066482 0.12797932
-0.04742481 0.11661952 0.07440262 0.05158295 -0.092351034 -0.14066304 0.04756767 0.12279338
-0.07963336 0.120633185 -0.1068068 0.051944192 -0.051981136 0.17650412 0.10414378 -0.15206486
-0.012461846 0.05185705 -0.064479984 -0.0074331407 -0.00600672 -0.09494048 0.14875859 0.12721966
0.08733332 0.07247092 -0.099416316 -0.04382203 -0.103631884 0.049755458 -0.05070924 0.062186643
0.11754341 0.121509664 -0.057001505 -0.06591778 -0.075046524 -0.15292329 0.11562946 -0.14896064
-0.10346197 0.0057663363 0.06499157 -0.071883686 -0.10912339 0.041667167 -0.0466385 0.030018063
-0.009924498 0.019545618 -0.005911422 -0.14007011 -0.045182303 -0.07583176 0.0867013 0.081258655
-0.030990094 0.14631033 0.09471737 0.1653155 -0.12189411 0.17499037 0.001758732 0.04010472
-0.0130317565 0.1434414 -0.15995952 0.06455857 -0.14091116 -0.057792924 -0.10428493 -0.06169501
-0.17121717 0.10718215 -0.06723623 -0.09781364 -0.05763445 0.03641953 -0.07745659 0.11400557
0.054556083 0.12929237 0.09350799 -0.1703077 -0.1804885 0.1524205 0.026754552 -0.04252865
0.06721618 0.08159413 0.020565594 0.121021554 0.034527056 -0.14892693 -0.017550737 -0.116299875
-0.15269807 0.07256321 -0.14901136 -0.033998247 0.097307235 -0.09863109 -0.06560978 -0.1277552
-0.058610797 0.033389367 0.12608996 0.062894255 -0.13868834 0.06578197 0.0043293745 0.15006892
-0.06939739 -0.1452663 0.06649449 0.044114344 -0.1549592 0.10701329 -0.15134631 -0.10247114
0.12717316 0.16554579 0.00155868 -0.07351167 0.049484108 0.14198674 0.067301124 -0.08663881
00000000: 45fd 03be 54a8 cd3c 54ad 143e 1385 043c
00000010: a6fe 05be f779 043e cd56 bebc 227d 983d
00000020: da93 de3d 2c04 243c cd59 26be 66f9 a03c
00000030: 10e5 10be b54e 0bbe fc33 8ebd cdfb 803b
00000040: f317 1d3e b665 08bd 8ee2 b83d a66e d9bc
00000050: 22bf 5a3d 145b fa3d 8f42 87bd 86a7 f53d
00000060: e7d2 0f3b 0770 353c 66d4 373d 6d48 10be
00000070: 1217 e7bd e78e 17bb 12c9 953c 98af bc3d
00000080: 7f25 debc b6e1 123d a3a2 613d e678 0cbc
00000090: 4c9c b7bd 701f ebbd e698 0fbe 5f40 12be
000000a0: 61e1 fb3d e308 a7bd 2d43 8eba df33 f03d
000000b0: 6e38 45bd bfb1 a9bc 6a5c bf3d 9537 20be
000000c0: b2e5 0ebe ab02 073e 8880 cbbd a05a ff3c
000000d0: 18b9 b43c ae8e 133d d81c 83be 5988 97bc
000000e0: b73f 52bd 746b 013e bb29 b23c b1d7 88bd
000000f0: 3075 fe3d a4e6 bd3d 4eeb 8b3c e586 563d
00000100: 4f90 663d 56fb dfbd 49e2 8fbd 6cab 22bd
00000110: d730 e4bd 2a43 f03d 0b9e 483d d118 d23d
00000120: 8f88 193c 250f 79bd 9e72 12be 61e4 ba3d
00000130: 5770 83bc f02c d63d fc55 a6bd 3881 02be
00000140: 4f06 943d c6e9 0dbd fa9a 77bd 4304 fdbd
00000150: a516 bdbc efad eb3d ffb5 debc 1fd5 97bd
00000160: c8dd 0c3c 93d2 47be 82ec 0f3a 1625 5abe
00000170: f166 0e3e 4783 ff3d b71e 9c3c e88f 02be
00000180: 48fc bfbd 0377 df3c c3f5 6e3d 44f8 cabb
00000190: 718e 24be cc64 0b3e 9285 453d 8c6a 093e
000001a0: e9b5 1abe e9ba 9c3c cac1 083e 0e92 f7bd
000001b0: 08c5 f53d fec3 0dbe c390 01be 84fd 1a3e
000001c0: 4a3b ccbd 3aad d1bd 95fa be3d 1161 e83d
000001d0: 51d3 0abe ac0a 683d 8428 333e b74d 18be
000001e0: 67f7 063e 28d4 77bd c31b d73d 45ab 07be
000001f0: 78af 85bd 6491 c33d 3300 39be 030d 033e
00000200: 8440 42bd 37d6 ee3d 6760 983d a548 533d
00000210: 8a22 bdbd f909 10be 51d6 423d 187b fb3d
00000220: d116 a3bd 880e f73d 86bd dabd 6fc3 543d
00000230: 2cea 54bd 7fbd 343e 5649 d53d e4b6 1bbe
00000240: c52c 4cbc 0f68 543d 150e 84bd b491 f3bb
00000250: 05d4 c4bb 2870 c2bd 2c54 183e df45 023e
00000260: d0db b23d a26b 943d c89a cbbd bb7e 33bd
00000270: f43c d4bd 61cc 4b3d 7eb4 4fbd 6cb7 7e3d
00000280: 99ba f03d 0fda f83d 697a 69bd e7ff 86bd
00000290: feb1 99bd ec97 1cbe 23cf ec3d 2389 18be
000002a0: dfe3 d3bd 89f3 bc3b 4d1a 853d c137 93bd
000002b0: 157c dfbd 31ab 2a3d 0308 3fbd 71e8 f53c
000002c0: 5d9a 22bc 221e a03c 9ab4 c1bb 8a6e 0fbe
000002d0: 1411 39bd af4d 9bbd 7490 b13d f06a a63d
000002e0: f0de fdbc 60d2 153e 2efb c13d 7748 293e
000002f0: 9fa3 f9bd ad30 333e 4185 e63a d944 243d
00000300: 2683 55bc 4de2 123e 6ecc 23be 4937 843d
00000310: 044b 10be 46b8 6cbd 5693 d5bd e8b3 7cbd
00000320: 8e53 2fbe 5182 db3d 26b3 89bd 8552 c8bd
00000330: 1a12 6cbd a52c 153d 90a1 9ebd c17b e93d
00000340: 3376 5f3d 3865 043e 1e81 bf3d 2465 2ebe
00000350: fad1 38be 1f14 1c3e 5d2c db3c 8632 2ebd
00000360: a3a8 893d d31a a73d 2d79 a83c 26da f73d
00000370: 3e6c 0d3d 4d80 18be 90c6 8fbc a12e eebd
00000380: e25c 1cbe 059c 943d 6f96 18be bf41 0bbd
00000390: 0449 c73d 19ff c9bd 6c5e 86bd 42d2 02be
000003a0: e011 70bd 4ac3 083d ba1d 013e b4ce 803d
000003b0: 5104 0ebe b3b8 863d 6ddd 8d3b abab 193e
000003c0: 3820 8ebd b0c0 14be 432e 883d 3eb1 343d
000003d0: a0ad 1ebe c929 db3d 87fa 1abe 64dc d1bd
000003e0: ae39 023e d684 293e 9f4c cc3a 498d 96bd
000003f0: d9af 4a3d f964 113e 2cd5 893d b06f b1bd

StatefulPartitionedCall/sequential/dense/MatMul/ReadVariableOp:0 f4 [576, 256]
-0.08023566 -0.06297584 0.06274173 -0.07865036 0.04566456 -0.04994553 -0.06344238 -0.023045624
-0.06378542 -0.02074589 0.05307112 0.08979237 -0.038574778 -0.009828129 -0.018943224 0.07110914
0.087578 0.04908856 0.034653224 -0.05694318 0.08547661 0.03836383 -0.020183332 -0.02663663
-0.022037933 0.017394854 -0.061271526 -0.08565475 -0.056067962 -0.036475252 -0.025140101 -0.06867311
-0.057395693 0.020156391 -0.029782802 -0.058472186 0.0057298224 0.06445264 0.07999907 -0.024398705
-0.023883836 -0.015043678 -0.036603414 0.02078075 -0.0153402435 0.017188208 0.073627 0.034158196
0.0141552435 -0.049931865 0.030059857 -0.023829732 -0.015924634 -0.075529486 -0.021421956 -0.01652428
-0.073548764 0.049944922 -0.024474977 -0.020475416 -0.086991735 -0.046456322 0.070351206 -0.020265684
-0.047233615 0.026129114 -0.08400478 -0.05020908 0.015833661 0.009956724 -0.0045246845 0.083394
-0.013600373 -0.005381539 0.038222935 0.044819992 0.07395994 0.061494365 0.03337948 0.0628697
-0.040043976 -0.052423596 0.087164976 -0.05837969 0.01916112 -0.03116634 -0.081976034 -0.045853548
-0.0364134 -0.09258604 0.039892703 -0.03507494 -0.076003276 -0.00966146 -0.032912277 0.013312824
-0.06401199 0.07368758 -0.021295995 0.03125931 -0.029538102 0.07340672 -0.005577416 -0.07324803
0.034674175 -0.034844227 -0.077443354 0.08255233 0.015282493 -0.0524117 -0.013088234 -0.076229386
-0.03143903 -0.062046338 -0.02770034 0.06463998 -0.050173767 0.061894514 -0.0014672445 0.07290571
-0.07174631 0.07920257 0.08475684 -0.06703536 0.035038147 -0.037838884 0.085858405 0.07047622
0.010169946 -0.033726737 -0.08038628 -0.011930312 0.044068128 0.041875444 -0.057500124 -0.039456334
-0.0057330555 0.04331946 0.012767302 -0.06858972 -0.057514954 0.024356185 -0.011753579 -0.061199497
0.00034596756 0.030824754 -0.062021174 0.02425555 -0.0061602797 -0.039015207 0.014658143 0.06526306
0.05590656 0.0042420486 -0.035510175 0.0029750224 -0.011892045 0.084800035 0.01630719 0.044896495
0.03518695 -0.048981447 0.010672808 0.06185284 0.0332078 0.073500305 0.04129638 -0.019724673
0.0043742075 -0.069468506 -0.030045975 -0.025189966 -0.06955641 0.006271291 -0.08773659 0.03574732
0.06261108 0.011038032 -0.0076205214 0.059138633 0.07705972 -0.06427522 0.023292905 0.054367345
-0.02115844 -0.08344678 0.013279086 -0.056940142 0.0065428987 -0.0020622094 0.056160554 -0.038616866
-0.07986391 -0.05564696 -0.09482132 -0.08654784 -0.04861015 0.059642725 0.0079711005 -0.06516438
0.0011922125 0.03293817 0.003483517 0.0007784625 -0.0907517 -0.075134575 -0.063716486 -0.009787291
-0.014738453 0.054804012 0.06619601 -0.025760723 -0.025940983 0.07014128 -0.042711597 0.007950389
-0.0532098 -0.0394519 -0.040470857 -0.07586083 0.086281136 -0.039810326 0.066565245 -0.0025110187
-0.063797094 0.043932877 -0.047394555 0.05972024 0.055849165 0.023701401 -0.043181002 0.084106684
0.014185296 -0.04972372 0.058806736 -0.031526286 -0.015399386 0.042644195 0.0018768844 0.060377326
-0.008728175 -0.023562916 0.055406578 -0.01980212 -0.041449547 0.017508728 -0.07766428 -0.018791249
0.07541878 -0.07724552 0.061823074 -0.07437863 0.065948814 -0.05387969 -0.066646025 0.073662475
00000000: 9852 a4bd 7af9 80bd bc7e 803d 7113 a1bd
00000010: c30a 3b3d af93 4cbd 14ee 81bd 2dca bcbc
00000020: eea1 82bd 49f3 a9bc 1a61 593d 10e5 b73d
00000030: 9600 1ebd 2906 21bc d22e 9bbc aba1 913d
00000040: 185c b33d 1611 493d 8af0 0d3d 403d 69bd
00000050: 5c0e af3d 6423 1d3d 8457 a5bc 1035 dabc
00000060: e588 b4bc a77f 8e3c daf7 7abd c26b afbd
00000070: 85a7 65bd 1367 15bd 9df2 cdbc 7da4 8cbd
00000080: bf17 6bbd 041f a53c 10fb f3bc 8880 6fbd
00000090: 3cc1 bb3b bfff 833d 8dd6 a33d cbdf c7bc
000000a0: 09a8 c3bc c279 76bc 76ed 15bd 643c aa3c
000000b0: a555 7bbc 49ce 8c3c c1c9 963d 77e9 0b3d
000000c0: 65eb 673c 5b85 4cbd 1740 f63c 9236 c3bc
000000d0: 6174 82bc 34af 9abd 197d afbc ed5d 87bc
000000e0: bca0 96bd 0c93 4c3d bf7f c8bc 0fbc a7bc
000000f0: b928 b2bd fc48 3ebd 4b14 903d 3804 a6bc
00000100: 0978 41bd b90c d63c b30a acbd 09a8 4dbd
00000110: 98b5 813c 8721 233c ce43 94bb 79ca aa3d
00000120: 19d4 5ebc 9f57 b0bb a78f 1c3d 2b95 373d
00000130: 4f78 973d 84e1 7b3d ecb8 083d d4c1 803d
00000140: 2705 24bd 20ba 56bd 8d83 b23d 8b1f 6fbd
00000150: c8f7 9c3c 8d50 ffbc 0de3 a7bd eed0 3bbd
00000160: 3826 15bd c09d bdbd 8866 233d beaa 0fbd
00000170: 9ba7 9bbd 1a4b 1ebc 06cf 06bd 081e 5a3c
00000180: b818 83bd 84e9 963d f074 aebc c309 003d
00000190: e4f9 f1bc 4356 963d c2c2 b6bb 1003 96bd
000001a0: 8206 0e3d d2b8 0ebd 9f9a 9ebd 3211 a93d
000001b0: 6c63 7a3c a7ad 56bd 0870 56bc 271e 9cbd
000001c0: 36c6 00bd 4d24 7ebd d3eb e2bc f761 843d
000001d0: 0283 4dbd 1a85 7d3d 8e50 c0ba 974f 953d
000001e0: bbef 92bd f534 a23d fe94 ad3d d649 89bd
000001f0: 2984 0f3d f2fc 1abd 88d6 af3d d655 903d
00000200: d89f 263c 0c25 0abd 90a1 a4bd 5b77 43bc
00000210: c880 343d 9685 2b3d 4085 6bbd f79c 21bd
00000220: 5bdc bbbb bf6f 313d f22d 513c c478 8cbd
00000230: cd94 6bbd 9f86 c73c 1592 40bc 53ac 7abd
00000240: fb62 b539 3284 fc3c ea09 7ebd 93b3 c63c
00000250: 2cdc c9bb 69ce 1fbd b528 703c a4a8 853d
00000260: 47fe 643d e200 8b3b 1e73 11bd 98f8 423b
00000270: dad6 42bc a4ab ad3d a896 853c 63e5 373d
00000280: 3120 103d c5a0 48bd 00dd 2e3c 6759 7d3d
00000290: e704 083d 5487 963d 6526 293d a395 a1bc
000002a0: 8355 8f3b 8145 8ebd fa22 f6bc 305b cebc
000002b0: 9773 8ebd 677f cd3b 3eaf b3bd c86b 123d
000002c0: 3d3a 803d ddd8 343c 91b5 f9bb 5a3b 723d
000002d0: 7dd1 9d3d baa2 83bd c3d0 be3c 4bb0 5e3d
000002e0: 7754 adbc 25e6 aabd 8690 593c 113a 69bd
000002f0: d065 d63b 2226 07bb 9c08 663d b82c 1ebd
00000300: b18f a3bd 11ee 63bd ae31 c2bd fe3f b1bd
00000310: 701b 47bd ee4b 743d 3899 023c e774 85bd
00000320: 0344 9c3a 2dea 063d b84b 643b bc11 4c3a
00000330: 07dc b9bd 28e0 99bd ca7d 82bd e05a 20bc
00000340: 8d79 71bc 2c7a 603d c691 873d 2708 d3bc
00000350: 2f82 d4bc 3ba6 8f3d 5bf2 2ebd 5942 023c
00000360: 85f2 59bd 5198 21bd c5c4 25bd ec5c 9bbd
00000370: 2ab4 b03d 2710 23bd 5c53 883d e78f 24bb
00000380: 0da8 82bd f6f2 333d cb20 42bd 369d 743d
00000390: 18c2 643d 7129 c23c 90de 30bd 2040 ac3d
000003a0: 7269 683c 19ab 4bbd 55df 703d b521 01bd
000003b0: b54d 7cbc aeab 2e3d ca01 f63a 374e 773d
000003c0: 9f00 0fbc 0407 c1bc 02f2 623d 0e38 a2bc
000003d0: 00c7 29bd 776e 8f3c 730e 9fbd 1bf0 99bc
000003e0: 2975 9a3d e632 9ebd 313a 7d3d d353 98bd
000003f0: 2c10 873d f3b0 5cbd b67d 88bd 5adc 963d

StatefulPartitionedCall/sequential/dense/BiasAdd/ReadVariableOp:0 f4 [256]
-0.004924127 0.00074117084 -0.0055666557 -0.002954597 0.0008073953 0.004498637 0.003148182 0.00013091543
0.0015765997 -4.6054036e-05 0.001411718 6.04313e-05 0.00012774282 0.009306562 -0.00030276546 -0.008054384
0.0025859217 0.0030233387 0.00287705 0.0004180837 0.005584887 0.0038873437 -0.007861658 0.0031501765
-0.003897253 -0.00021941827 0.0018828422 0.008936799 -0.007724601 -0.00054202555 0.00116348 -0.0046761236
-0.005221287 0.0047725327 0.002882815 -0.0016700481 0.00035306113 -0.0075451345 -0.0067884093 -0.0021351476
0.00037347194 -0.003106132 -0.0065540154 0.0038670013 0.0009325307 -0.007697802 0.005972223 0.005527962
-0.0015621873 -0.0029770678 0.0031766722 0.0003204338 -0.0049617854 0.0007065595 0.015722103 0.0016094205
-0.0053722016 -0.00060290156 -0.006030727 -0.005443791 -0.01023542 -0.0035172726 0.0038934813 0.00062584196
0.0009891328 -0.000257627 0.0013374891 0.0065468815 -0.0075305817 0.0032301692 0.005514316 0.00046006413
-0.0014983534 -0.006308137 0.0023887013 0.001766179 0.0015443797 -0.005990461 -0.0033550048 -0.0003314842
0.006369855 0.005510389 0.0044330778 0.012133575 -0.0067745987 -0.008343028 -0.00281413 0.0024843507
0.00014208564 0.008801846 -0.004505056 0.01564603 0.0032125674 0.0025617324 -0.0055525806 0.0021370759
0.00610848 -0.0012692494 -0.0055472483 -0.00015384436 0.0055117104 0.00065631716 0.0013359303 -0.0031717317
0.006752572 0.0008062896 0.0027548783 -0.005433934 -0.0009558195 -0.003501484 1.4051831e-05 0.0055579366
0.007977522 -0.0067547997 -0.00154884 0.0031948087 0.0020463062 0.0059033833 0.0065858257 0.002726069
-0.00676329 0.0026359637 -4.1553787e-05 0.0039889896 -0.00016965659 -0.007865865 0.010518097 0.00013845829
0.0019300223 0.0018596405 -0.008886734 0.004357896 -0.0022322033 0.0012101671 -0.00037519695 0.0022053109
-0.007433228 0.002219459 0.007978316 0.00024902532 0.0001815558 0.00816619 4.7655525e-05 0.0053753736
-0.003669399 0.0027671405 -0.0064164936 0.00024188949 -0.005356061 -0.005634535 0.00090345956 6.781241e-05
0.0004613061 0.0018564151 0.0008190381 -0.00818792 -0.00033509827 0.001741011 0.004793719 0.003844167
0.008012232 0.0051846546 -0.009179497 -0.0023033603 0.0005864432 -0.001162068 -0.000455691 0.007899404
-0.0028467253 -0.0047813877 0.0042952606 -0.0078018866 0.0058172354 -0.00024793835 -0.00599519 0.005797717
-0.00032213534 0.0011230289 -0.0061975736 0.0026267073 0.0024081466 -0.0027592739 0.00067030324 0.0003545958
-0.0048431032 0.001213681 0.001594087 0.0053639533 -0.005310245 0.0057736305 -0.0039995094 -0.005969826
0.0031950213 0.00451984 0.0106025785 -0.0019016102 0.0015976592 0.0037683272 -8.189045e-05 -0.0038266021
0.005286534 0.011167299 -0.004259405 0.0095487125 -0.0049613304 -0.007125226 -0.0010555632 -0.0035388533
0.008017282 0.0020599114 0.00050821615 0.005494903 0.0013148992 -0.00031736778 -0.0022834819 -0.00074224116
-0.0058109434 7.649308e-05 -2.6516522e-05 -0.005732192 0.0014444508 0.013549 -0.0038870687 0.0075329915
0.0028589035 -0.00031095222 0.008785681 0.0005825731 -0.00018490179 -0.0010269103 -0.0060757548 0.014607923
0.002835701 -0.00039145316 0.0035958027 -0.005654855 0.0112069 -0.008161286 -0.0017107712 0.0027124148
0.003451793 0.0050842296 0.0025736808 -0.0058791502 -0.0030109498 -0.0087511055 0.0006766719 0.0050818953
0.0037049314 0.006440487 -0.008188362 -0.0014528518 0.0005657321 3.4369532e-05 -0.0002206626 -0.00020395743
00000000: 925a a1bb 224b 423a 7e68 b6bb e9a1 41bb
00000010: 62a7 533a 4d69 933b bb51 4e3b 5846 0939
00000020: e8a5 ce3a 252a 41b8 6509 b93a 9d77 7d38
00000030: b4f2 0539 8d7a 183c 7ebc 9eb9 89f6 03bc
00000040: 9178 293b 3523 463b e48c 3c3b 3f32 db39
00000050: 6e01 b73b cec2 7e3b 2fce 00bc 3173 4e3b
00000060: 0e69 7fbb a513 66b9 b3c9 f63a a76b 123c
00000070: a61e fdbb b816 0eba e97f 983a 2b3a 99bb
00000080: 5417 abbb e862 9c3b 9ced 3c3b 84e5 daba
00000090: 101b b939 2d3d f7bb 4e71 debb d5ed 0bbb
000000a0: 8ece c339 3f90 4bbb 11c3 d6bb 846d 7d3b
000000b0: 1375 743a d83d fcbb a3b2 c33b e823 b53b
000000c0: 4fc2 ccba e91a 43bb b72f 503b e6ff a739
000000d0: 7996 a2bb 6838 393a a4cb 803c 31f3 d23a
000000e0: 4b09 b0bb 0a0c 1eba 689d c5bb d461 b2bb
000000f0: 77b2 27bc 0b82 66bb c729 7f3b 8b0f 243a
00000100: caa5 813a 1c12 87b9 b04e af3a 3987 d63b
00000110: 19c3 f6bb 3fb1 533b 6fb1 b43b c334 f139
00000120: 6664 c4ba 7db4 cebb c28b 1c3b 227f e73a
00000130: c96c ca3a a14b c4bb a4df 5bbb 0ecb adb9
00000140: 37ba d03b 7e90 b43b 5a43 913b e7cb 463c
00000150: 74fd ddbb 32b1 08bc 446d 38bb 7dd0 223b
00000160: d3fc 1439 9e35 103c 269f 93bb 1a2c 803c
00000170: f089 523b bde2 273b 6cf2 b5bb 2f0e 0c3b
00000180: a529 c83b f15c a6ba b1c5 b5bb 4851 21b9
00000190: 949b b43b b30c 2c3a 621a af3a d4dc 4fbb
000001a0: ae44 dd3b 2e5d 533a 308b 343b 240f b2bb
000001b0: f68f 7aba 2779 65bb 28c0 6b37 5a1f b63b
000001c0: 27b4 023c 5e57 ddbb 7202 cbba ff5f 513b
000001d0: 521b 063b 2b71 c13b e9cd d73b d9a7 323b
000001e0: 979e ddbb 22c0 2c3b 0a4a 2eb8 12b6 823b
000001f0: d8e5 31b9 d4df 00bc 1954 2c3c 1d2f 1139
00000200: cdf8 fc3a 2ebf f33a aa99 11bc aecc 8e3b
00000210: 284a 12bb 789e 9e3a 15b6 c4b9 fa86 103b
00000220: 7092 f3bb 5874 113b 7cb7 023c 9d8f 8239
00000230: 0460 3e39 7ccb 053c bbe1 4738 e723 b03b
00000240: 4d7a 70bb ea58 353b 7341 d2bb b7a3 7d39
00000250: e581 afbb e8a1 b8bb 25d6 6c3a 8336 8e38
00000260: 75db f139 f452 f33a b7b4 563a a026 06bc
00000270: 21b0 afb9 a332 e43a a114 9d3b 6cee 7b3b
00000280: bd45 033c 09e4 a93b 9a65 16bc f9f3 16bb
00000290: 89bb 193a 8850 98ba d0e9 eeb9 806c 013c
000002a0: 2090 3abb 30ad 9cbb 42bf 8c3b f8a6 ffbb
000002b0: 829e be3b b9fd 81b9 4c73 c4bb c6fa bd3b
000002c0: 46e4 a8b9 9932 933a 0415 cbbb d624 2c3b
000002d0: ffd1 1d3b efd4 34bb 4ab7 2f3a 0be9 b939
000002e0: e5b2 9ebb 6014 9f3a aff0 d03a 1ac4 af3b
000002f0: 9001 aebb b930 bd3b 510e 83bb 889e c3bb
00000300: 9063 513b 2a1b 943b 70b6 2d3c 733f f9ba
00000310: 8c68 d13a 0af6 763b 9abc abb8 bbc7 7abb
00000320: a93a ad3b 0cf7 363c 7b92 8bbb 3472 1c3c
00000330: a892 a2bb ba7a e9bb d35a 8aba 1bec 67bb
00000340: eb5a 033c 94ff 063b cf39 053a 960e b43b
00000350: b258 ac3a 6264 a6b9 78a6 15bb f692 42ba
00000360: ba69 bebb e96a a038 cc6f deb7 1dd5 bbbb
00000370: ba53 bd3a a0fc 5d3c 31be 7ebb 50d7 f63b
00000380: 715c 3b3b 4d07 a3b9 d1f1 0f3c d2b7 183a
00000390: 32e2 41b9 6499 86ba 2017 c7bb 1256 6f3c
000003a0: 2bd7 393b f43b cdb9 8fa7 6b3b 5d4c b9bb
000003b0: 259d 373c eab6 05bc f53b e0ba c5c2 313b
000003c0: 7a37 623b 9c99 a63b 33ab 283b e3a5 c0bb
000003d0: 5b53 45bb cc60 0fbc af62 313a 0786 a63b
000003e0: 6fce 723b b90a d33b 7b28 06bc 9e6d beba
000003f0: a34d 143a 0128 1038 aa61 67b9 68dd 55b9

StatefulPartitionedCall/sequential/conv2d_4/BiasAdd_weights_fused_bn f4 [16, 32, 3, 3]
-0.10657244 -0.06650547 0.13403474 -0.077547304 0.09841004 0.008251784 0.11507726 0.008315766
-0.039666723 -0.10086677 -0.04732369 -0.111456566 0.09558589 0.1306223 -0.024386538 0.018307367
-0.08505535 0.12580189 -0.045648653 0.013720803 0.09841912 -0.009378956 -0.07825546 0.019219933
0.15637629 0.028370101 -0.034022972 -0.17228436 0.08825133 -0.1113663 0.060211625 -0.10490261
-0.071875736 0.030988466 0.1703135 0.08869401 -0.10548823 0.07280756 -0.0058755465 0.07385351
0.13567254 0.07849343 0.10175853 -0.0064601847 -0.06985523 0.024105238 0.12660228 -0.07241472
-0.11755507 -0.11158294 -0.010222026 -0.14865379 -0.12180243 0.057523735 -0.004242152 0.076079465
0.016598685 -0.057094876 -0.032786068 -0.0869644 -0.14580432 0.084157445 -0.07478658 -0.006025876
0.07729623 -0.16291325 -0.03634801 -0.08400755 0.023876576 -0.13541973 0.13231273 0.04394596
-0.1418311 -0.09817617 0.14131097 0.06406576 -0.1212516 0.151734 -0.11039752 0.044054396
0.15567788 -0.10446655 0.0344802 0.06624888 -0.0151653085 0.02496716 -0.1248881 0.09272827
0.02836836 0.03279659 0.11652604 0.099916115 -0.06250919 0.0005217558 -0.04010263 -0.054336853
0.13058476 0.04085533 -0.0058176103 0.013834498 0.047616754 0.07838165 0.07699171 -0.014986477
-0.013209499 -0.0903339 -0.05327248 0.14196603 0.1360781 -0.037141647 0.13754027 -0.12279409
0.03861528 -0.041514717 0.099443756 0.13403577 -0.04952899 -0.12502813 -0.0806214 -0.16281386
-0.06540524 0.11933007 0.07633764 -0.066073656 -0.14912665 -0.026849154 0.035951518 -0.12529123
-0.13425848 -0.10274683 0.13121863 0.042072117 -0.018289117 -0.002922062 -0.118484035 0.013994181
0.06010354 0.054432586 0.051076885 0.02563459 0.07524589 -0.12279497 -0.033064626 -0.08445156
0.011091217 0.061678663 -0.13802461 -0.030201277 0.024084438 -0.021031879 -0.09367353 -0.019867444
-0.04097733 0.103546284 0.13107254 -0.03192885 -0.0136131635 0.030805403 -0.099802196 0.008974942
-0.015287538 0.12229212 -0.10278212 0.030346394 -0.15211064 0.030532574 -0.0963692 -0.027593007
-0.15717405 0.044199765 0.061997123 -0.0058748843 -0.11626539 -0.12688036 0.13079144 0.07162152
-0.06255289 -0.056805093 0.039210208 -0.013285262 0.13935207 0.028011365 0.02030177 -0.08007309
-0.015235361 -0.018025983 -0.05196159 0.1051001 0.100795664 -0.07303064 -0.16642927 -0.14818028
0.021452319 0.13682231 -0.062091716 -0.057708398 -0.05727706 -0.07187166 0.067756645 -0.0699028
-0.031997494 0.012570797 0.093761705 -0.06453691 0.010349025 0.045577254 0.061397694 -0.0634461
-0.03780251 0.10380088 0.14052461 0.010476847 0.0016222615 -0.02536819 -0.07034284 0.05156855
0.07167256 -0.14062831 0.12369726 0.10676764 0.09603003 -0.0075647463 0.050345093 0.1181886
0.13499954 0.06738032 -0.059439164 0.044021185 0.11994925 -0.12701824 -0.14443263 0.0032367078
-0.05895831 0.081909925 0.06688588 -0.09154987 0.04560123 0.036572587 -0.111958705 0.11487002
-0.18292274 -0.04225204 0.069668286 0.028422592 0.030291628 0.118423894 0.14066905 0.061433468
-0.046208687 0.010174643 -0.024470368 -0.116144165 -0.017792057 -0.09073636 0.09388461 -0.12141344
00000000: a742 dabd 0534 88bd 6740 093e 1fd1 9ebd
00000010: 348b c93d 7e32 073c a0ad eb3d da3e 083c
00000020: 9379 22bd 3d93 cebd 7cd6 41bd 5743 e4bd
00000030: 89c2 c33d dac1 053e 47c6 c7bc 55f9 953c
00000040: 8031 aebd 36d2 003e 15fa 3abd 38cd 603c
00000050: f78f c93d 31aa 19bc 6644 a0bd 1f73 9d3c
00000060: 1b21 203e 6a68 e83c ac5b 0bbd 506b 30be
00000070: 1dbd b43d 0414 e4bd 77a0 763d 2ed7 d6bd
00000080: 9633 93bd 86db fd3c aa66 2e3e 35a5 b53d
00000090: 370a d8bd 211c 953d a887 c0bb 8240 973d
000000a0: beed 0a3e 2ac1 a03d c766 d03d f5af d3bb
000000b0: 4210 8fbd 5978 c53c 07a4 013e 2b4e 94bd
000000c0: b6c0 f0bd 9985 e4bd 497a 27bc b338 18be
000000d0: 8d73 f9bd 029e 6b3d c001 8bbb 8dcf 9b3d
000000e0: f7f9 873c 51dc 69bd af4a 06bd 641a b2bd
000000f0: ba4d 15be bd5a ac3d b529 99bd b674 c5bb
00000100: 7c4d 9e3d bbd2 26be a7e1 14bd 260c acbd
00000110: cf98 c33c 78ab 0abe fd7c 073e ae00 343d
00000120: 2c3c 11be 9610 c9bd d3b3 103e e934 833d
00000130: c252 f8bd 2860 1b3e 1818 e2bd 6272 343d
00000140: 066a 1f3e 8ff2 d5bd 1c3b 0d3d 7ead 873d
00000150: ea77 78bc ee87 cc3c 55c5 ffbd 52e8 bd3d
00000160: c364 e83c b855 063d 34a5 ee3d d2a0 cc3d
00000170: d104 80bd 70c6 083a a842 24bd 5290 5ebd
00000180: 03b8 053e eb57 273d a7a1 bebb 17aa 623c
00000190: c909 433d 8f86 a03d d4ad 9d3d d789 75bc
000001a0: a86c 58bc fb00 b9bd 3e34 5abd 8b5f 113e
000001b0: 0f58 0b3e d721 18bd 5bd7 0c3e 787b fbbd
000001c0: 0e2b 1e3d 560b 2abd 2ba9 cb3d ac40 093e
000001d0: e9de 4abd 6007 00be d51c a5bd adb8 26be
000001e0: 2ff3 85bd 5363 f43d e956 9c3d a051 87bd
000001f0: a8b4 18be c2f2 dbbc e641 133d 584c 00be
00000200: 0e7b 09be ee6c d2bd 2d5e 063e d053 2c3d
00000210: 0fd3 95bc 1180 3fbb c2a7 f2bd d947 653c
00000220: 212f 763d b4f4 5e3d ff35 513d a2ff d13c
00000230: 841a 9a3d ee7b fbbd c66e 07bd f1f4 acbd
00000240: f0b7 353c c4a2 7c3d 5356 0dbe ab68 f7bc
00000250: ba4c c53c 0c4b acbc e8d7 bfbd 0dc1 a2bc
00000260: d8d7 27bd 1310 d43d e137 063e d3c7 02bd
00000270: bf09 5fbc 9d5b fc3c 1865 ccbd a30b 133c
00000280: 9578 7abc 4a74 fa3d 6f7f d2bd 0099 f83c
00000290: e4c2 1bbe 731f fa3c 375d c5bd bb0a e2bc
000002a0: 3cf2 20be d00a 353d b2f0 7d3d 1a82 c0bb
000002b0: 8c1c eebd edec 01be 31ee 053e 4eae 923d
000002c0: bb1b 80bd 75ac 68bd e29a 203d 6daa 59bc
000002d0: 4fb2 0e3e 1778 e53c e64f a63c 5cfd a3bd
000002e0: bc9d 79bc 3aab 93bc add5 54bd b93e d73d
000002f0: f56d ce3d 1791 95bd 6f6c 2abe 92bc 17be
00000300: c6bc af3c 261b 0c3e e253 7ebd a45f 6cbd
00000310: 5a9b 6abd 7331 93bd ffc3 8a3d 3329 8fbd
00000320: ce0f 03bd bef5 4d3c 2306 c03d ed2b 84bd
00000330: f58e 293c 37af 3a3d 267c 7b3d 07f0 81bd
00000340: ced6 1abd 8e95 d43d afe5 0f3e 15a7 2b3c
00000350: 10a2 d43a f3d0 cfbc e80f 90bd 8b39 533d
00000360: 10c9 923d de00 10be fd54 fd3d fea8 da3d
00000370: 64ab c43d b1e1 f7bb a836 4e3d dd0c f23d
00000380: 523d 0a3e b1fe 893d 7b76 73bd 8f4f 343d
00000390: f4a7 f53d 1211 02be 26e6 13be f21e 543b
000003a0: 457e 71bd 64c0 a73d 77fb 883d 807e bbbd
000003b0: 5bc8 3a3d 23cd 153d 9b4a e5bd f940 eb3d
000003c0: 1950 3bbe 7a10 2dbd 3fae 8e3d 7fd6 e83c
000003d0: 2626 f83c 3a88 f23d 8c0b 103e a9a1 7b3d
000003e0: 5245 3dbd 8cb3 263c 1576 c8bc fedc edbd
000003f0: a6c0 91bc fcd3 b9bd 9346 c03d 9ca7 f8bd

StatefulPartitionedCall/sequential/conv2d_4/BiasAdd_bias_fused_bn f4 [16]
0.13006613 -2.1733503 0.20322396 -0.9094263 -1.5435845 0.89588606 -0.19667839 -0.33725065
-0.9617337 -0.33427274 -1.5059047 2.0991008 -0.41273457 0.22352369 -0.23655306 0.6860565
00000000: 0e30 053e 2c18 0bc0 f119 503e 29d0 68bf
00000010: 2d94 c5bf ca58 653f 0f66 49be 1eac acbe
00000020: 2e34 76bf cc25 abbe 7cc1 c0bf ab57 0640
00000030: f251 d3be 65e3 643e f73a 72be 66a1 2f3f

StatefulPartitionedCall/sequential/conv2d_3/BiasAdd_weights_fused_bn f4 [32, 16, 3, 3]
-0.06051678 0.13702266 0.035648983 -0.09930916 0.057296507 0.007689759 -0.13200772 -0.14356855
-0.03558802 0.016054004 0.1262513 0.16394919 0.16856536 -0.030153241 0.06469358 0.1095499
-0.06974843 0.0052600927 -0.17161152 0.038855284 0.18344362 0.059282463 0.07338918 -0.120349586
0.035185065 0.11530537 0.031616922 0.04779178 -0.1727818 -0.19468513 0.19417864 0.13473484
-0.12395994 -0.21572676 -0.16328254 0.035994425 -0.097190045 -0.11935871 -0.008936576 0.048296005
0.20156972 0.006060427 0.1106411 0.077177666 0.08452339 -0.053265136 0.14304692 -0.21318619
0.10420829 0.18747504 -0.11945118 -0.023289368 0.010729755 0.15301141 0.027643925 0.2083383
-0.045538094 -0.0019158535 -0.14530288 0.20861581 -0.16838455 0.016424233 0.017124979 0.18096946
-0.08845899 0.024837408 -0.016688915 0.20533244 0.118149616 -0.080091745 0.17950656 -0.22628246
-0.113575555 0.03722229 0.062148914 -0.16941233 0.16177993 0.15894681 -0.22540727 0.14397721
-0.12970681 -0.16969113 0.19801207 0.21538496 -0.13983937 -0.18549319 -0.17877552 -0.096775144
-0.18104504 -0.11828245 0.07369581 -0.058621574 0.05625924 0.17492259 -0.18205336 0.11472851
0.15651815 0.1451383 0.17264815 0.19666345 0.011645592 -0.07055278 -0.11828179 0.15544876
-0.16190504 0.19412987 -0.05163681 -0.18330178 0.0027299556 -0.029562674 -0.18942554 -0.14501815
0.06712823 0.16067287 0.020112285 0.09132156 -0.13966079 -0.15566832 0.18814458 -0.102567375
-0.16126801 -0.14928287 0.051981237 0.17001502 0.1343322 0.10340835 0.11724482 0.10002968
0.046366185 -0.018563857 0.20007332 -0.044790655 0.1822217 -0.018816343 0.13078696 0.14184606
0.09223877 0.10635276 0.17000324 -0.102496594 -0.011006897 -0.052957933 0.16804785 -0.006560827
-0.09839262 -0.12858719 0.1578027 -0.114966385 0.115816385 -0.16853166 0.17038679 -0.15198928
-0.07976366 -0.030152027 -0.17448662 0.18385567 0.010174412 0.21338335 -0.09045644 -0.11278612
0.16839632 0.07392819 0.23174974 -0.042983603 -0.20918389 -0.0013858767 -0.101505764 0.03316574
-0.102064595 0.19537896 0.19231065 0.19038245 0.026011666 0.029443387 -0.10992462 0.108328946
0.03203948 -0.19438376 -0.120545015 0.12110517 0.14264451 0.0054450445 -0.008138393 -0.1118977
-0.16747403 -0.111408815 0.16258468 -0.014539109 0.052335616 -0.13634138 0.0977677 0.19526805
-0.1450983 -0.1470563 -0.10283667 -0.12267753 0.103902355 0.045345634 0.15081991 0.12044339
-0.049251996 -0.16144334 0.11092604 0.0913024 0.06300781 0.06967324 -0.10465831 -0.16685404
0.057180066 -0.18285097 0.023012385 -0.07496834 0.20351247 0.09155267 -0.043926477 -0.10528813
0.12665245 0.14371096 -0.18585117 -0.1800887 -0.116064616 0.14449327 0.10701936 0.13325815
-0.18011327 -0.16772223 -0.021655563 -0.18067485 -0.08411383 -0.09538993 0.11403121 0.03391256
0.16313416 -0.07066889 -0.118512206 0.035645563 -0.17105505 0.123705745 -0.1615401 0.20889872
-0.08979841 0.009690576 -0.09237422 -0.030650027 -0.05894299 0.2171718 -0.124205634 -0.11241766
0.048008885 -0.108651996 -0.040415857 0.10763476 0.051495276 -0.22816461 0.052798666 -0.0277193
00000000: 71e0 77bd ab4f 0c3e ab04 123d 9a62 cbbd
00000010: beaf 6a3d 60fa fb3b 082d 07be a203 13be
00000020: bec4 11bd b083 833c 0548 013e 4ce2 273e
00000030: 669c 2c3e ee03 f7bc 117e 843d b35b e03d
00000040: 44d8 8ebd db5c ac3b eeba 2fbe b826 1f3d
00000050: a5d8 3b3e 2bd2 723d 114d 963d d879 f6bd
00000060: 371e 103d 3925 ec3d bf80 013d 50c1 433d
00000070: b6ed 30be 8a5b 47be c4d6 463e eef7 093e
00000080: b6de fdbd 7ae7 5cbe 8a33 27be e46e 133d
00000090: 930b c7bd 5772 f4bd b76a 12bc 08d2 453d
000000a0: 4b68 4e3e 8c96 c63b cd97 e23d 530f 9e3d
000000b0: 991a ad3d 8b2c 5abd e47a 123e 7b4d 5abe
000000c0: 286b d53d 75f9 3f3e d2a2 f4bd 58c9 bebc
000000d0: dbcb 2f3c 06af 1c3e 8375 e23c a356 553e
000000e0: 2786 3abd 601d fbba 47ca 14be 629f 553e
000000f0: 006d 2cbe 1d8c 863c af49 8c3c 0f50 393e
00000100: fd29 b5bd d277 cb3c 31b7 88bc ab42 523e
00000110: 6df8 f13d 2407 a4bd 91d0 373e 97b6 67be
00000120: 4d9a e8bd 6676 183d dc8f 7e3d 6d7a 2dbe
00000130: a3a9 253e f4c2 223e 2ad1 66be c36e 133e
00000140: ddd1 04be 83c3 2dbe adc3 4a3e e08d 5c3e
00000150: 0d32 0fbe edf1 3dbe ee10 37be 0c32 c6bd
00000160: df63 39be 123e f2bd d4ed 963d 2d1d 70bd
00000170: 1770 663d e81e 333e 326c 3abe c8f6 ea3d
00000180: 4b46 203e 229f 143e adca 303e 2562 493e
00000190: 27cd 3e3c fa7d 90bd b93d f2bd f62d 1f3e
000001a0: 6fca 25be fbc9 463e 1f81 53bd 76b3 3bbe
000001b0: 0ee9 323b 6c2d f2bc c5f8 41be a37f 14be
000001c0: 877a 893d 6e87 243e 85c2 a43c cc06 bb3d
000001d0: 3d03 0fbe 8467 1fbe f9a8 403e d80e d2bd
000001e0: 7123 25be 9cdd 18be 47ea 543d 6b18 2e3e
000001f0: 618e 093e c2c7 d33d 0d1e f03d 5cdc cc3d
00000200: 78ea 3d3d 3b13 98bc 05e0 4c3e 6876 37bd
00000210: 5398 3a3e bb24 9abc 04ed 053e 1840 113e
00000220: aee7 bc3d 7acf d93d 5415 2e3e bce9 d1bd
00000230: 4656 34bc 6bea 58bd bc14 2c3e 35fc d6bb
00000240: 1282 c9bd 5cac 03be 0897 213e 7f73 ebbd
00000250: 2431 ed3d 9093 2cbe e079 2e3e 14a3 1bbe
00000260: 215b a3bd 6201 f7bc 9fac 32be a944 3c3e
00000270: 94b2 263c 2a81 5a3e 3a41 b9bd 69fc e6bd
00000280: 1670 2c3e aa67 973d ce4f 6d3e 930f 30bd
00000290: 4d34 56be 4ea6 b5ba 41e2 cfbd cdd8 073d
000002a0: 3e07 d1bd 6c11 483e 15ed 443e 9ef3 423e
000002b0: 6b16 d53c 4233 f13c 2920 e1bd 91db dd3d
000002c0: d43b 033d 890c 47be 4ee0 f6bd fd05 f83d
000002d0: 6711 123e 586c b23b e556 05bc 9f2a e5bd
000002e0: 507e 2bbe 4e2a e4bd 997c 263e 7135 6ebc
000002f0: df5d 563d 139d 0bbe 6f3a c83d 59f4 473e
00000300: a694 14be ed95 16be 089c d2bd 5b3e fbbd
00000310: c2ca d43d 58bc 393d 8970 1a3e 06ab f63d
00000320: 76bc 49bd 6751 25be 312d e33d c1fc ba3d
00000330: 3d0a 813d d8b0 8e3d 1957 d6bd c9db 2abe
00000340: a535 6a3d 493d 3bbe 7884 bc3c 0089 99bd
00000350: 9365 503e f77f bb3d 40ec 33bd 4ea1 d7bd
00000360: 2eb1 013e f728 133e c54f 3ebe 2c69 38be
00000370: 49b3 edbd 0bf6 133e f72c db3d d374 083e
00000380: 9d6f 38be 60bf 2bbe 0267 b1bc d402 39be
00000390: df43 acbd cc5b c3bd 3289 e93d e6e7 0a3d
000003a0: a40c 273e daba 90bd 87b6 f2bd 1501 123d
000003b0: 0e29 2fbe 7059 fd3d c56a 25be 8ce9 553e
000003c0: 3be8 b7bd 39c5 1e3c b22e bdbd c415 fbbc
000003d0: 346e 71bd 4962 5e3e 865f febd 3b3b e6bd
000003e0: f7a4 443d f084 debd 198b 25bd 9d6f dc3d
000003f0: b6ec 523d fca3 69be 6a43 583d 9613 e3bc

StatefulPartitionedCall/sequential/conv2d_3/BiasAdd_bias_fused_bn f4 [32]
-1.1946255 0.06485608 0.1727834 0.25977203 0.0018101465 0.87097365 0.6129775 -0.40115494
0.37139982 -1.0565621 0.54605174 -0.25947002 0.8392427 0.3877301 0.921038 0.98162454
0.025345895 1.4741269 -0.82937646 1.8162856 0.0037488244 0.2537805 -1.1999613 -1.0428792
0.35239527 0.43722507 0.69049245 0.46317524 2.9890192 -0.8316461 0.37075284 2.0476854
00000000: 7de9 98bf 44d3 843d 22ee 303e d700 853e
00000010: 7042 ed3a 21f8 5e3f 18ec 1c3f 2e64 cdbe
00000020: 1e28 be3e 6d3d 87bf 0cca 0b3f 41d9 84be
00000030: 9cd8 563f 8f84 c63e 25c9 6b3f bf4b 7b3f
00000040: 32a2 cf3c 31b0 bc3f 0452 54bf 0c7c e83f
00000050: d6ae 753b 85ef 813e 5598 99bf 117d 85bf
00000060: 276d b43e f7db df3e 1dc4 303f 4e25 ed3e
00000070: 174c 3f40 c2e6 54bf 51d3 bd3e 470d 0340

StatefulPartitionedCall/sequential/conv2d_2/BiasAdd_weights_fused_bn f4 [16, 32, 3, 3]
0.03006918 -0.10267349 -0.022431592 -0.05211934 -0.07747806 0.060095407 0.067202844 0.070499696
-0.04241154 0.06654853 0.031179354 -0.05860691 0.07239578 0.07937344 0.031543583 0.036703788
-0.03342767 0.060759887 -0.07279258 0.071013294 -0.06575997 0.049445312 0.07039824 0.04513937
-0.026012031 0.03521228 0.08294646 -0.10523109 -0.10677934 0.07386807 0.06282851 -0.030215422
-0.048362248 0.01139189 -0.07180287 0.039207585 -0.020426935 -0.026822058 0.10407926 0.0702502
0.06896832 -0.086942315 -0.025339793 0.09427167 0.036228165 0.033048548 -0.008397175 0.067124575
-0.022074677 -0.10020281 0.012151875 0.043927543 0.014019251 -0.094687164 -0.019651946 -0.06976942
-0.045644693 -0.1064372 0.05294107 0.022210702 -0.029686801 0.09676299 0.064057544 0.07276939
0.04011804 -0.042563427 0.045112547 -0.0149660995 -0.046329338 -0.08019106 -0.07828155 0.005636965
0.06727716 -0.0849929 0.07093991 -0.06539919 0.036066256 0.06470558 -0.07061504 0.00863981
0.017793057 0.010425868 -0.012084204 0.046099745 0.061223805 -0.09179784 0.080179036 -0.09427359
0.065576136 0.069212526 0.005164716 -0.021808824 -0.08776024 -0.027063182 0.08135549 0.049817037
-0.06024518 0.020722207 -0.1155764 0.07206534 -0.043130595 0.04894388 -0.029384447 0.06390931
0.010461878 -0.0019858393 -0.0386945 -0.0312454 -0.020657815 -0.013251746 -0.03589148 0.024780652
-0.09357831 -0.043459754 -0.019093888 0.030152002 0.0744618 -0.015987333 0.09648577 0.042529102
-0.09102758 -0.04240701 -0.065420285 -0.027990894 -0.039684743 0.05479759 0.040666204 0.052935876
-0.0697011 0.041624468 0.03750934 -0.008661694 -0.015100955 0.055503163 0.06519272 0.04876314
0.051763415 0.01245447 0.09668099 -0.09625484 -0.09436746 0.09488326 0.037803285 0.03329458
0.085950434 -0.05783741 -0.07361085 -0.09141954 0.099681534 0.09763088 0.008207253 -0.08105492
0.080373816 0.09660314 -0.058646075 0.10122931 0.059780575 0.015310676 0.054044653 0.08726745
0.037477423 0.07975444 0.067534655 0.0750032 0.087913185 -0.05716117 0.021844966 0.06064028
-0.056940787 0.05658233 -0.009515013 -0.011224996 0.025999239 0.048408702 -0.039447725 0.09970602
0.01175588 -0.045402262 0.03476898 0.027953096 0.008646118 -0.05434653 -0.021419374 -0.02724541
-0.086541995 0.028111514 -0.053163707 0.06745742 0.0720139 0.030147102 0.11866475 0.008056712
0.0873305 0.0003069038 -0.059001837 -0.06201898 0.08124923 0.025330707 0.060389932 -0.07951839
-0.0068658697 0.0100562405 -0.038866725 0.078072056 -0.016727865 -0.010621617 -0.07765703 -0.04618389
-0.07800805 0.10111147 0.018137023 -0.04467499 0.03883999 -0.06727979 -0.008262145 0.04270231
-0.050993167 -0.091577105 -0.067408785 0.057379376 -0.10365465 -0.05106227 0.09807931 -0.021237463
-0.11589545 -0.056642983 -0.022358937 -0.025838487 0.06585549 -0.09499979 0.10233739 -0.029900135
-0.02110176 -0.0065379376 0.02168922 0.05088312 0.088310085 -0.101214476 -0.039090436 -0.034707084
-0.0169609 0.042152602 0.0073551326 -0.08289231 -0.10773277 0.01040828 -0.061343886 0.060055397
-0.10422339 0.088962466 0.07084327 -0.07409072 0.0681076 -0.01645596 -0.05758614 -0.051579483
00000000: a453 f63c 7b46 d2bd 75c2 b7bc 177b 55bd
00000010: d1ac 9ebd 9a26 763d a5a1 893d 2562 903d
00000020: b9b7 2dbd 984a 883d d86b ff3c cd0d 70bd
00000030: 3d44 943d 8b8e a23d d833 013d b656 163d
00000040: 74eb 08bd 5cdf 783d 4714 95bd 6b6f 913d
00000050: 2aad 86bd 2b87 4a3d f42c 903d 0fe4 383d
00000060: 2f17 d5bc c03a 103d d5df a93d 6683 d7bd
00000070: 20af dabd 2548 973d 3cac 803d 5586 f7bc
00000080: 7e17 46bd 0da5 3a3c 620d 93bd 2298 203d
00000090: 6356 a7bc efb9 dbbc 8227 d53d 56df 8f3d
000000a0: 433f 8d3d d00e b2bd 6695 cfbc 8111 c13d
000000b0: fc63 143d ea5d 073d 4e94 09bc 9c78 893d
000000c0: f4d5 b4bc 2137 cdbd a818 473c 5eed 333d
000000d0: 00b1 653c 58eb c1bd 1efd a0bc 45e3 8ebd
000000e0: eef5 3abd bffb d9bd bcd8 583d 38f3 b53c
000000f0: bc31 f3bc ad2b c63d 9a30 833d 1e08 953d
00000100: d052 243d fd56 2ebd efc7 383d 5f34 75bc
00000110: d5c3 3dbd 363b a4bd 1452 a0bd 4ab6 b83b
00000120: 9cc8 893d c210 aebd f248 913d 03f0 85bd
00000130: 36ba 133d 5c84 843d 9e9e 90bd fd8d 0d3c
00000140: bfc2 913c 43d1 2a3c d3fc 45bc 16d3 3c3d
00000150: d0c5 7a3d 8200 bcbd e834 a43d 8312 c1bd
00000160: c84c 863d 4cbf 8d3d c73c a93b 6ba8 b2bc
00000170: a4bb b3bd 9bb3 ddbc b59d a63d f30c 4c3d
00000180: a6c3 76bd 9ec1 a93c 52b3 ecbd fe96 933d
00000190: b5a9 30bd 6179 483d a7b7 f0bc e2e2 823d
000001a0: 4c68 2b3c db24 02bb 207e 1ebd 5af6 ffbc
000001b0: 943a a9bc da1d 59bc f202 13bd cb00 cb3c
000001c0: fca5 bfbd db02 32bd c96a 9cbc 5501 f73c
000001d0: 6e7f 983d def7 82bc 559a c53d ff32 2e3d
000001e0: ab6c babd f9b2 2dbd 12fb 85bd 294d e5bc
000001f0: 788c 22bd 7073 603d 9b91 263d 4ad3 583d
00000200: 73bf 8ebd 6b7e 2a3d 65a3 193d c7e9 0dbc
00000210: ff69 77bc 4957 633d c383 853d dcbb 473d
00000220: e005 543d d50d 4c3c af00 c63d 4221 c5bd
00000230: ba43 c1bd 2852 c23d 9ed7 1a3d e65f 083d
00000240: c806 b03d ece6 6cbd 49c1 96bd 2b3a bbbd
00000250: d525 cc3d b3f2 c73d b777 063c 1f00 a6bd
00000260: 079b a43d ded7 c53d de36 70bd 5051 cf3d
00000270: 7adc 743d a1d9 7a3c ed5d 5d3d 47b9 b23d
00000280: ed81 193d 4c56 a33d 9c4f 8a3d 479b 993d
00000290: d40b b43d d521 6abd 37f4 b23c f161 783d
000002a0: be3a 69bd e0c2 673d dbe4 1bbc 0ce9 37bc
000002b0: 5bfc d43c 3448 463d f093 21bd ab32 cc3d
000002c0: bc9b 403c b9f7 39bd eb69 0e3d e4fd e43c
000002d0: 73a8 0d3c 789a 5ebd af77 afbc c431 dfbc
000002e0: ee3c b1bd 1e4a e63c 30c2 59bd 1e27 8a3d
000002f0: 067c 933d 0ef7 f63c 8106 f33d 4d00 043c
00000300: 55da b23d eee7 a039 e9ab 71bd 9d07 7ebd
00000310: ff65 a63d 5882 cf3c 6f5b 773d 8ada a2bd
00000320: 17fb e0bb eec2 243c b732 1fbd 3ee4 9f3d
00000330: e008 89bc 4a06 2ebc a60a 9fbd 522b 3dbd
00000340: afc2 9fbd 8813 cf3d 1894 943c 1ffd 36bd
00000350: ae16 1f3d fdc9 89bd f35d 07bc 9ee8 2e3d
00000360: 36de 50bd c78c bbbd 9e0d 8abd a306 6b3d
00000370: e448 d4bd ac26 51bd cedd c83d 30fa adbc
00000380: 985a edbd 7902 68bd 172a b7bc 3cab d3bc
00000390: 3edf 863d 408f c2bd 4496 d13d 21f1 f4bc
000003a0: 99dd acbc 323c d6bb 97ad b13c d26a 503d
000003b0: ebdb b43d 8949 cfbd 4b1d 20bd 0429 0ebd
000003c0: 96f1 8abc 35a8 2c3d 5303 f13b 72c3 a9bd
000003d0: 00a3 dcbd 7e87 2a3c ba43 7bbd a6fc 753d
000003e0: 1373 d5bd f431 b63d 4716 913d e0bc 97bd
000003f0: ff7b 8b3d a6ce 86bc 72df 6bbd 0245 53bd

StatefulPartitionedCall/sequential/conv2d_2/BiasAdd_bias_fused_bn f4 [16]
-0.822238 -0.7309758 0.47628435 -0.09347612 0.26947477 -0.85341126 0.52628547 0.947101
0.48718256 0.77090406 0.85789657 0.026721507 0.57192504 0.041088767 0.87290156 0.18155152
00000000: 317e 52bf 3b21 3bbf 8bdb f33e 6870 bfbd
00000010: 99f8 893e 2979 5abf a5ba 063f 3675 723f
00000020: fe6f f93e f859 453f 1c9f 5b3f 10e7 da3c
00000030: ae69 123f b24c 283d 7a76 5f3f a4e8 393e

StatefulPartitionedCall/sequential/conv2d_1/BiasAdd_weights_fused_bn f4 [32, 16, 3, 3]
0.13332066 0.043216623 -0.19419126 -0.22929555 0.037607253 -0.12954244 -0.17737478 -0.09399223
0.28566328 -0.19157769 -0.08480759 -0.14770375 -0.025668489 0.01041109 0.1005776 0.21385795
0.23739223 -0.287932 0.020362303 0.10405375 0.06623117 0.07473001 -0.040247507 0.14688563
-0.011461296 -0.30066323 0.05741285 -0.33500543 -0.27265197 -0.2819654 -0.33968893 0.14151786
0.21504216 0.31199867 -0.17142767 -0.302737 -0.20312963 -0.024753701 0.20775114 0.30461195
-0.32929066 0.14518669 0.104418166 -0.22117344 0.14339891 -0.31174245 0.18844521 0.03835829
-0.2445087 0.036562633 -0.14192359 -0.060729094 0.14531955 -0.3361454 -0.23644407 -0.2506113
0.24313278 0.19998877 -0.07533155 -0.25954032 -0.31703907 0.30272096 -0.11452723 0.2866241
0.057566386 0.088619664 -0.053323004 -0.11734594 -0.24425553 0.3221117 0.018719448 0.30092743
-0.06489517 -0.12784278 0.2092015 -0.022575447 -0.03198953 0.27262053 -0.15390804 0.20764478
-0.1994834 -0.057817716 0.12174165 -0.14618355 0.041063197 0.17702764 -0.12885 0.33591682
-0.23394401 -0.27055347 0.28232542 0.15764754 0.21341166 0.110357374 0.31098637 0.17278415
0.20571326 0.13344085 0.32777604 -0.11105314 -0.34595174 -0.18392088 -0.07897843 0.19955775
0.2797455 0.13525538 -0.15701367 -0.23755004 -0.12750381 -0.03163137 -0.21097624 0.009608137
0.29908884 -0.032992035 -0.062159196 -0.0655413 -0.311029 -0.06557903 0.06309309 -0.16945535
-0.30900002 0.14723723 -0.16995537 0.26312628 -0.043202713 0.28921694 0.10284936 0.10007483
-0.07491677 0.13510302 -0.2777093 -0.07484427 0.028691368 0.27132356 -0.17205591 -0.32456902
-0.20899911 0.10848968 0.17655952 0.1839448 -0.11060182 0.14396709 -0.04942187 -0.026348986
0.02284613 -0.015623438 0.1278536 0.0033097973 0.04380413 -0.025560979 -0.049166314 -0.11837925
-0.11711999 0.13726644 0.11293304 -0.08350447 -0.13917023 0.004395373 0.008369696 -0.048251297
0.08832757 0.092365466 -0.12710844 0.04267651 -0.11732315 0.041181177 0.07176936 0.056170054
0.10542638 0.013616094 0.06779407 -0.03527673 0.008080342 0.03362983 0.035586383 -0.025951514
0.02778878 0.08845964 -0.08264111 0.018023973 -0.13181782 -0.07922491 0.033246614 -0.086203404
0.09567153 0.039437484 0.07534751 0.02025551 -0.1502434 0.06575245 0.11582988 -0.004976632
0.068338804 -0.019059759 0.012448364 -0.0712678 0.02586181 0.04075365 -0.035744898 -0.014188606
0.0071288785 0.032455444 -0.0252577 0.116207145 -0.14056462 0.040467508 -0.09050396 0.16790715
0.12776998 -0.016518192 0.016224235 0.13023277 0.11577307 0.10631174 -0.08163741 0.10357942
0.12847808 0.09367561 -0.11341931 -0.017016903 -0.050382752 0.027797602 0.10848819 0.12960504
0.074693024 0.04412134 0.0081275925 -0.12092373 -0.12655011 -0.09795013 -0.11376371 0.025415782
0.12632768 0.0659646 -0.039694298 0.029035186 -0.07897564 0.05102257 -0.0055816798 -0.059707202
0.12911654 0.07140511 -0.12578657 -0.00035657483 -0.13430974 -0.08994684 -0.084952876 0.07552647
-0.14262924 0.059153356 0.007636065 0.008902147 0.10078452 -0.020679764 -0.124732465 -0.010532127
00000000: 3685 083e ea03 313d 13da 46be 74cc 6abe
00000010: 100a 1a3d c6a6 04be bca1 35be 007f c0bd
00000020: 7542 923e f12c 44be 9aaf adbd a73f 17be
00000030: b946 d2bc 4793 2a3c a1fb cd3d 94fd 5a3e
00000040: f316 733e d36b 93be d8ce a63c 221a d53d
00000050: 35a4 873d 0c0c 993d 92da 24bd 3069 163e
00000060: 29c8 3bbc 88f0 99be bd29 6b3d d585 abbe
00000070: 0a99 8bbe c55d 90be b5eb adbe 0fea 103e
00000080: 0334 5c3e 4abe 9f3e bc8a 2fbe 5800 9bbe
00000090: 3701 50be 46c8 cabc b7bc 543e 19f6 9b3e
000000a0: c998 a8be d2ab 143e 31d9 d53d 4a7b 62be
000000b0: 2ad7 123e b59c 9fbe c8f7 403e 951d 1d3d
000000c0: 7d60 7abe b3c2 153d 6b54 11be 12bf 78bd
000000d0: a6ce 143e 401b acbe 651e 72be 2050 80be
000000e0: cdf7 783e dbc9 4c3e 6d47 9abd 78e2 84be
000000f0: f252 a2be 3efe 9a3e 418d eabd 65c0 923e
00000100: bbca 6b3d 3a7e b53d 3969 5abd 1153 f0bd
00000110: 1f1e 7abe d3eb a43e 8759 993c 2913 9a3e
00000120: c2e7 84bd 38e9 02be eb38 563e 25f0 b8bc
00000130: 7407 03bd eb94 8b3e 129a 1dbe d5a0 543e
00000140: 6045 4cbe 45d2 6cbd b053 f93d 24b1 15be
00000150: e231 283d bc46 353e 41f1 03be 4afd ab3e
00000160: 058f 6fbe fc85 8abe f58c 903e 5b6e 213e
00000170: 9688 5a3e 0c03 e23d 9b39 9f3e 54ee 303e
00000180: 7fa6 523e b8a4 083e 43d2 a73e d46f e3bd
00000190: 9620 b1be c155 3cbe 71bf a1bd de58 4c3e
000001a0: cd3a 8f3e 6380 0a3e 31c8 20be 5140 73be
000001b0: 5c90 02be e58f 01bd 280a 58be 736b 1d3c
000001c0: 2c22 993e a822 07bd a49a 7ebd 843a 86bd
000001d0: 313f 9fbe 4c4e 86bd f336 813d b485 2dbe
000001e0: 4035 9ebe 5bc5 163e c808 2ebe 7db8 863e
000001f0: 54f5 30bd 3e14 943e afa2 d23d 08f4 cc3d
00000200: f76d 99bd 7258 0a3e ea2f 8ebe f447 99bd
00000210: 290a eb3c ecea 8a3e 6d2f 30be e92d a6be
00000220: dd03 56be d62f de3d 05cc 343e 075c 3c3e
00000230: 3583 e2bd 1c6c 133e 966e 4abd d4d9 d7bc
00000240: cf27 bb3c 73f9 7fbc 0eec 023e 2fe9 583b
00000250: f66b 333d 4265 d1bc 9e62 49bd d270 f2bd
00000260: 9bdc efbd 938f 0c3e 7049 e73d 6404 abbd
00000270: a482 0ebe 1007 903b 0d21 093c 27a3 45bd
00000280: 16e5 b43d 1b2a bd3d b728 02be 90cd 2e3d
00000290: 1f47 f0bd 98ad 283d d0fb 923d 9212 663d
000002a0: c9e9 d73d 0a16 5f3c 9ed7 8a3d 557e 10bd
000002b0: 6963 043c 6fbf 093d 07c3 113d 4598 d4bc
000002c0: 4ca5 e33c 542a b53d be3f a9bd 03a7 933c
000002d0: 40fb 06be ab40 a2bd 9a2d 083d 698b b0bd
000002e0: 6fef c33d 3389 213d cc4f 9a3d e2ee a53c
000002f0: 68d9 19be 38a9 863d 3738 ed3d 0413 a3bb
00000300: 37f5 8b3d 3623 9cbc 39f4 4b3c daf4 91bd
00000310: 26dc d33c 4ded 263d 3e69 12bd 5477 68bc
00000320: 5e99 e93b 00f0 043d 3ce9 cebc 03fe ed3d
00000330: 2cf0 0fbe 42c1 253d 245a b9bd daef 2b3e
00000340: 22d6 023e 2951 87bc b0e8 843c bd5b 053e
00000350: 6e1a ed3d f8b9 d93d 8431 a7bd 7221 d43d
00000360: c28f 033e 00d9 bf3d 6248 e8bd 0867 8bbc
00000370: 255e 4ebd ccb7 e33c 0e2f de3d 2fb7 043e
00000380: a8f8 983d 94b8 343d 9829 053c dca6 f7bd
00000390: 5a96 01be 149a c8bd f3fc e8bd c234 d03c
000003a0: 0b5c 013e 7318 873d 7d96 22bd 33db ed3c
000003b0: fbbd a1bd 0bfd 503d 86e6 b6bb 8a8f 74bd
000003c0: 2037 043e d83c 923d 32ce 00be aaf2 bab9
000003d0: 7e88 09be 0d36 b8bd c6fb adbd 9fad 9a3d
000003e0: 660d 12be ca4a 723d f537 fa3b 50da 113c
000003f0: 1d68 ce3d 9c68 a9bc bc73 ffbd f18e 2cbc

StatefulPartitionedCall/sequential/conv2d_1/BiasAdd_bias_fused_bn f4 [32]
0.5124767 -0.10187968 -0.9569998 -0.80793625 -1.3188375 -0.07625515 0.9398194 -0.029641422
-0.19350986 1.7045941 0.0711762 -0.64005125 1.2567296 0.28426224 -1.2769277 -0.08570783
-0.60088056 -0.6163669 0.66252196 -0.34119874 -0.49725768 0.65858066 -0.4712774 1.3378948
-0.2721564 1.7330681 0.2291446 -1.0804836 -0.14537159 0.46088666 0.3292007 -0.0780923
00000000: ac31 033f 4ba6 d0bd f0fd 74bf e9d4 4ebf
00000010: abcf a8bf a92b 9cbd 0198 703f 91d2 f2bc
00000020: 7327 46be 2430 da3f d4c4 913d 66da 23bf
00000030: 84dc a03f d28a 913e 5e72 a3bf 9687 afbd
00000040: 4fd3 19bf 39ca 1dbf 0a9b 293f 9ab1 aebe
00000050: 8f98 febe be98 283f 454b f1be 2340 ab3f
00000060: 1558 8bbe 2dd5 dd3f e2a4 6a3e 494d 8abf
00000070: 4adc 14be 56f9 eb3e ff8c a83e dbee 9fbd
